facialExpressionRecognitionLib/src/main/assets/model.pt (torch, 345546 bytes, 80 tensors)

weight f4 [8, 1, 3, 3]
0	0x3dcc5be3	0.099784635
1	0xbd05f07c	-0.032700047
2	0xbe00cad9	-0.1257738
3	0x3de12b93	0.10994639
4	0x3d7ef642	0.06224657
5	0xbe83ffa2	-0.2578097
6	0x3e882b17	0.26595375
7	0xbdb2ba34	-0.08726922
8	0xbe247d86	-0.16063508
9	0xbd53bd9e	-0.051694505
10	0xbec0f417	-0.37686226
11	0x3dac2b52	0.084067
12	0x3e5130c3	0.20428757
13	0x3ddddfe5	0.1083372
14	0x3d46c320	0.04852593
15	0xbce9a00e	-0.028518703
16	0xbc988a15	-0.01862053
17	0x3d16eeda	0.03684888
18	0xbe59c471	-0.21266343
19	0xbeada28c	-0.33913076
20	0x3df3f467	0.119118504
21	0xbe47a4d6	-0.19496474
22	0x3d92b124	0.07162693
23	0x3e6eee8a	0.23333183
24	0xbdd81ae0	-0.10552001
25	0x3e2b615e	0.16736361
26	0x3e68e33d	0.22742935
27	0x3e164ff4	0.14678937
28	0x3d652ba3	0.05594982
29	0x3c847c1f	0.016172467
30	0x3ecce498	0.40018153
31	0x3d047fbe	0.032348387
32	0xbd03d2e7	-0.032183554
33	0xbdf0024d	-0.11719189
34	0xbea029fc	-0.31282032
35	0xbe461d56	-0.19347128
36	0x3e0a316b	0.13495414
37	0xbd62e909	-0.05539802
38	0x3da50a42	0.08058597
39	0xbdfa7013	-0.12228408
40	0xbe846660	-0.25859356
41	0xbd5b7673	-0.05357976
42	0x3c1b51d4	0.009479959
43	0x3dfba22f	0.122867934
44	0xbe1909fe	-0.14945218
45	0x3d9e5018	0.077301204
46	0xbdb69471	-0.08915032
47	0x3ce0bd53	0.027434027
48	0x3e20b655	0.15694554
49	0x3c4a36b9	0.012342148
50	0x3d8ace53	0.067776345
51	0x3d9283b5	0.071540274
52	0xbdcec6a0	-0.100964785
53	0x3daef84d	0.08543453
54	0x3da20572	0.07911195
55	0xbe673538	-0.22578895
56	0xbea4b314	-0.32167876
57	0xbde746da	-0.11292811
58	0x3dccfe2e	0.100094184
59	0xbe3fdd9a	-0.18736878
60	0x3e8335d2	0.25627
61	0x3ee4458a	0.44584304
62	0xbbd5c692	-0.0065239156
63	0x3de5903b	0.112091504
64	0x3e2502b2	0.1611431
65	0xbe781055	-0.2422498
66	0x3e4b4288	0.19849598
67	0x3d926cde	0.07149671
68	0xbe68955d	-0.22713228
69	0x3bdd69c2	0.006756992
70	0xbdde5cec	-0.10857567
71	0x3dc6a435	0.09699289

weight f4 [8]
0	0x3e5d7e3a	0.21630183
1	0x3e91c81a	0.28472978
2	0x3ea0f140	0.3143406
3	0x3e89e44f	0.26931998
4	0x3eaa5b7f	0.3327293
5	0x3ea3b20b	0.31971774
6	0x3e927681	0.28606036
7	0x3e84e778	0.25957847

bias f4 [8]
0	0x3da9afee	0.08285509
1	0x3e65e961	0.22452308
2	0x3d643d9a	0.05572281
3	0x3dfba2b8	0.122868955
4	0xbe36b84c	-0.17843741
5	0xbd37bb5a	-0.044856407
6	0x3e542053	0.20715456
7	0x3db94269	0.0904587

running_mean f4 [8]
0	0xbd8515ec	-0.06498322
1	0x3b586f50	0.0033025332
2	0xbbb11f5b	-0.005405349
3	0x392b6d0d	0.00016348455
4	0xbe1dc1ef	-0.15406011
5	0x3e23e4db	0.1600527
6	0x3cf0b447	0.029382838
7	0x3cfa4206	0.03054906

running_var f4 [8]
0	0x3b9dadff	0.0048120017
1	0x3a58d3a0	0.00082712807
2	0x3bcb0faa	0.0061969357
3	0x3b874e5c	0.004129214
4	0x3bb5dd03	0.0055500283
5	0x3bab6092	0.005230018
6	0x3bdfb0a3	0.0068264767
7	0x3b1ccf02	0.0023927097

weight f4 [8, 8, 3, 3]
0	0xbcc5c32a	-0.024140913
1	0xbd912ba6	-0.070884034
2	0xbb676e42	-0.0035313522
3	0x3cdca342	0.026933316
4	0x3d97c18e	0.074099645
5	0x3c89329d	0.016747767
6	0x3dad5533	0.08463516
7	0x3d0c88b0	0.034310043
8	0xbcb4b64f	-0.022059588
9	0x3cf894c5	0.030344376
10	0xbc429a59	-0.01187762
11	0xbcc97967	-0.024594022
12	0x3c9c4d76	0.019079905
13	0xbccdbda8	-0.02511485
14	0x3d8d3163	0.068941854
15	0x3d624be9	0.055248175
16	0xbcfff578	-0.031244978
17	0xbd1e9f7f	-0.038726326
18	0x3ca2535b	0.019815138
19	0x3ca3c68b	0.019992134
20	0xbcbe846f	-0.023256509
21	0x3cd65c6b	0.026167115
22	0x3ce7d749	0.028300898
23	0x3d153187	0.036424186
24	0xbb13a3d2	-0.0022528064
25	0x3cd3ed0f	0.025869874
26	0x3d9ecd94	0.07754055
27	0x3d40cfcb	0.047073167
28	0xbd2b2038	-0.041778773
29	0xbd9732b2	-0.07382716
30	0xbccbacbb	-0.024862638
31	0xbd717b95	-0.058955748
32	0x3dd4ac5a	0.10384436
33	0xbcf4a11f	-0.029861985
34	0x3d7a925c	0.061174735
35	0x3c438bbc	0.011935171
36	0x3da2b747	0.07945114
37	0x3db0febb	0.08642336
38	0xbab5b4e3	-0.0013863113
39	0x3e2552ee	0.16144916
40	0x3d8b81fc	0.06811902
41	0x3ceae69c	0.028674416
42	0x3d981a2a	0.074268654
43	0x3d3fa3a5	0.046786923
44	0x3dc0078a	0.09376438
45	0xbc5f369c	-0.01362386
46	0xbc0c9e14	-0.008582611
47	0xbd0dbd93	-0.03460462
48	0xbd60b6bb	-0.054861765
49	0xbd462882	-0.048378475
50	0xbc3e290a	-0.011606464
51	0xbcce941c	-0.025217108
52	0xbd0565ca	-0.032567777
53	0xbd84ce60	-0.064846754
54	0xbdb4af2f	-0.08822476
55	0xbcb0813c	-0.021545999
56	0xbda00f05	-0.07815365
57	0x3a60ab10	0.0008570412
58	0xbda9253b	-0.08259054
59	0xbdd24fab	-0.10269102
60	0x3d55297d	0.05204152
61	0xbda4e5be	-0.08051632
62	0xbd5a6e4b	-0.05332784
63	0xbd233a36	-0.039850436
64	0xbd36f784	-0.044669643
65	0xbd2e7518	-0.042592138
66	0xbcbf727d	-0.023370022
67	0x3c91b999	0.017788695
68	0x3bf95c17	0.007609855
69	0x3c44fe10	0.012023464
70	0x3d8647f2	0.06556691
71	0xbd0383e2	-0.032108195
72	0xbcfe98e2	-0.03107876
73	0xbde27780	-0.11057949
74	0x3de91d45	0.11382536
75	0xbd3d397a	-0.046197392
76	0xbc2e5725	-0.010640894
77	0x3c4959c0	0.0122894645
78	0x3d035f1c	0.032073125
79	0xbcfa4504	-0.030550487
80	0xbdd5c133	-0.104372405
81	0xbd34f944	-0.04418303
82	0xbe10eca3	-0.1415277
83	0xbd7082f2	-0.05871863
84	0x3d278533	0.040898513
85	0x3a63d932	0.00086917274
86	0x3dfb36d5	0.12266318
87	0x3e25b85f	0.16183613
88	0xbdd70ffb	-0.10501095
89	0x3c06508c	0.008197915
90	0xbe4717ba	-0.19442645
91	0xbcaa2d29	-0.020773487
92	0x3d02420d	0.031801272
93	0xbc964ff3	-0.01834867
94	0x3d83cd01	0.06435586
95	0x3bcafd6c	0.006194761
96	0x3e231542	0.15926078
97	0x3d17192b	0.036889236
98	0x3d99d376	0.07511036
99	0xbb9a33ef	-0.004705898
100	0xbd4889c8	-0.048959523
101	0xbd30ea70	-0.043192327
102	0xbdc681ab	-0.09692701
103	0xbdd48e3a	-0.1037869
104	0xbceba3e6	-0.028764676
105	0x3d8178c0	0.06321859
106	0x3d520beb	0.051280897
107	0x3d8b93e8	0.0681532
108	0xbcb65ddc	-0.022261553
109	0x3d50edb4	0.05100794
110	0xbcb6e304	-0.022325046
111	0x3dc9339b	0.09824296
112	0xbcccbd81	-0.024992706
113	0xbcbe3897	-0.023220344
114	0x3d0e276f	0.034705576
115	0xbc8a32d9	-0.01686995
116	0xbd93b1d3	-0.07211652
117	0x3d54ce45	0.051954526
118	0xbda4286e	-0.08015524
119	0x3c960083	0.01831079
120	0x3d85e1bf	0.06537198
121	0xbd6a984f	-0.05727416
122	0x3e159a94	0.14609748
123	0x3d7f160b	0.06227688
124	0xbd70b6da	-0.05876813
125	0x3da18848	0.07887322
126	0xbe3b8bbf	-0.18315028
127	0x3d0fd6c8	0.03511694
128	0x3b7882a6	0.003791967
129	0xbac36e6a	-0.0014910225
130	0x3dbdfbaf	0.092765205
131	0xbc95fd92	-0.018309388
132	0xbcb91412	-0.022592578
133	0xbd9797f5	-0.074020304
134	0x3d2926e7	0.041296866
135	0x3c083a32	0.008314656
136	0xbcf71829	-0.030162888
137	0xbcf2ba2b	-0.029629787
138	0xbddfae9b	-0.10921975
139	0xbdea1cc9	-0.114312716
140	0x3d9354fc	0.07193944
141	0xbdd66722	-0.1046889
142	0x3dda86a8	0.10670215
143	0xbc96a3a0	-0.01838857
144	0xbb8078f3	-0.0039206683
145	0x3d646463	0.0557598
146	0xbbbb2a3b	-0.0057118214
147	0x3d0c1766	0.034202002
148	0xbbc5e865	-0.0060396665
149	0xbd59904d	-0.05311613
150	0x3d995140	0.074862
151	0xbd5fb11d	-0.054612268
152	0xbc54a8be	-0.012979684
153	0xbcda6945	-0.026661525
154	0xbd4a86dd	-0.049445022
155	0x3c682fa4	0.014171515
156	0x3d79d4f8	0.06099412
157	0x3d88901e	0.06668113
158	0xbc900a81	-0.017583134
159	0xbc669f53	-0.014076072
160	0x3db3717c	0.0876188
161	0xbd274254	-0.04083474
162	0x3d36cabe	0.044626944
163	0xbdcf7412	-0.101295605
164	0xbd3c9047	-0.04603603
165	0x3d8e4bd1	0.069480546
166	0xbd62308e	-0.055222087
167	0x3db840ca	0.089967325
168	0xbd5f8b5e	-0.05457627
169	0x3bdb36ec	0.006689897
170	0x3d52b2bc	0.051439986
171	0xbd7aacf0	-0.061200082
172	0xbccfa344	-0.025346406
173	0x3dc94166	0.09826927
174	0xbdc57c07	-0.09642797
175	0xbd8ad860	-0.067795515
176	0xbd928bdc	-0.07155582
177	0xbd7a2d57	-0.061078396
178	0x3cee2d44	0.029074319
179	0xbb0e2d0f	-0.0021694337
180	0x3df38eaa	0.118924454
181	0x3cfa7e85	0.030577907
182	0x3dd252bc	0.102696866
183	0x3d27e137	0.040986266
184	0x3d6be6c2	0.057593115
185	0x3e174d91	0.14775683
186	0xbd49c846	-0.04926326
187	0x3c75cd68	0.015002586
188	0xbc224a5e	-0.009905426
189	0xbc8bdfeb	-0.017074546
190	0xbd10da6a	-0.035364546
191	0xbbc6b50e	-0.006064064
192	0xbcba1cd8	-0.022718832
193	0xbb5eb5db	-0.0033982906
194	0x3c2205bc	0.0098890625
195	0xbd9014ae	-0.07035194
196	0x3ca714aa	0.020395596
197	0xbd33565a	-0.043783523
198	0x3cb36c3f	0.021902202
199	0xbc96d825	-0.018413613
200	0x3c837713	0.01604799
201	0x3da586f8	0.08082384
202	0x3c92aba1	0.017904105
203	0x3d06cb71	0.03290886
204	0x3d3debfa	0.046367623
205	0x3dac72c3	0.084203266
206	0x3d644cc9	0.05573729
207	0xbd864397	-0.065558605
208	0xbd9b3d8a	-0.07580097
209	0xbcdf0346	-0.02722324
210	0xbd9a0784	-0.07520965
211	0xbd425123	-0.04744066
212	0xbb5954b6	-0.0033162064
213	0xbb444247	-0.002994673
214	0xbd31996f	-0.043359216
215	0x3cd79d72	0.026320193
216	0xbd982763	-0.074293874
217	0xbd204db2	-0.039136596
218	0x3b2c0069	0.0026245362
219	0xbc7d80af	-0.015472575
220	0x3cb97a40	0.022641301
221	0x3d41032e	0.047122173
222	0x3ca2a125	0.01985223
223	0xbc948d6d	-0.018133843
224	0x3b2f88c7	0.0026784407
225	0xbd16255f	-0.036656734
226	0x3d212ba4	0.03934826
227	0x3e02df52	0.12780502
228	0x3d2acd51	0.04169971
229	0xbe357cf2	-0.17723444
230	0xbe478dea	-0.1948773
231	0x3d8b239b	0.067939006
232	0x3cfce5c0	0.030871272
233	0xbdcd2ef4	-0.10018721
234	0xbd138bd2	-0.036022015
235	0x3c9bf6c3	0.019038564
236	0xbc584cdc	-0.013201918
237	0x3d02e499	0.03195629
238	0xbdd0f2e0	-0.10202575
239	0xbe104407	-0.1408845
240	0xba7f794e	-0.0009745554
241	0xbbc638d1	-0.0060492535
242	0x3cdba44d	0.026811743
243	0xbe130df3	-0.1436079
244	0xbcb7ee43	-0.02245248
245	0x3e405f33	0.18786316
246	0xbc456eb5	-0.01205032
247	0xbcbfdd0c	-0.023420833
248	0x3d9ec43b	0.07752272
249	0x3cff50f0	0.031166524
250	0x3d5f87b3	0.054572772
251	0xbc819b3b	-0.01582109
252	0xbb27fe8d	-0.0025633902
253	0xbd9c1326	-0.0762084
254	0xbd527c9f	-0.05138838
255	0xbd16c02f	-0.036804374

weight f4 [8]
0	0x3e9f66d1	0.3113313
1	0x3ea5bf85	0.3237268
2	0x3e9b24f8	0.30301642
3	0x3eb64ccc	0.35605466
4	0x3e94d563	0.2906905
5	0x3ec4d801	0.38446048
6	0x3e8fdf2b	0.2809995
7	0x3eada138	0.33912063

bias f4 [8]
0	0x3d741db6	0.059598647
1	0x3e24b134	0.16083223
2	0x3b54eea0	0.0032490864
3	0x3e3df1b4	0.18549234
4	0x3db00272	0.085942164
5	0x3d97845c	0.073982924
6	0x3dc4b9c2	0.09605743
7	0x3e344d15	0.1760753

running_mean f4 [8]
0	0xbd82589d	-0.06364558
1	0xbd7f7302	-0.06236554
2	0x3cfb211f	0.030655442
3	0xbe490757	-0.19631706
4	0x3c86ad5e	0.01644009
5	0xbdaf2922	-0.08552767
6	0xbe84b7a3	-0.25921354
7	0x3dffdc5e	0.124932036

running_var f4 [8]
0	0x3cc453d0	0.023965746
1	0x3ca18993	0.01971892
2	0x3c769bf0	0.015051827
3	0x3d07c7b9	0.033149455
4	0x3cd37bfc	0.025815956
5	0x3cd54ead	0.026038492
6	0x3c7d1ec3	0.015449229
7	0x3ce2ed77	0.027701123

weight f4 [16, 8, 1, 1]
0	0x3de1816d	0.11011014
1	0x3d22a033	0.03970356
2	0xbc262632	-0.010140942
3	0xbccb916a	-0.024849612
4	0x3d8d457e	0.0689802
5	0x3e56fc18	0.20994604
6	0xbe1d82db	-0.15381949
7	0x3d522665	0.051306147
8	0xbdf396e7	-0.11894017
9	0x3d8097e7	0.06278973
10	0xbe09942e	-0.13435432
11	0xba747c32	-0.0009326368
12	0xbdf14f50	-0.11782706
13	0x3d92eba6	0.071738526
14	0x3b72ebf7	0.0037066916
15	0xbd090498	-0.033451647
16	0x3da5e5bd	0.0810046
17	0x3cfa05f9	0.030520426
18	0x3db0a60e	0.086254224
19	0xbce27990	-0.027645856
20	0x3d736cbc	0.05942987
21	0x3e11da7f	0.14243506
22	0xbe0fbb58	-0.1403631
23	0x3d914215	0.07092682
24	0x3cbffdcc	0.02343645
25	0xbd92fc89	-0.071770735
26	0x3bb96d49	0.0056587798
27	0xbe350c7c	-0.17680544
28	0x3c3d8617	0.011567614
29	0x3c0b986a	0.008520225
30	0x3d2becb7	0.041973796
31	0xbe055ec8	-0.13024437
32	0xbdeb5fc2	-0.11492874
33	0x3d6d104e	0.057876877
34	0x3d9abebd	0.07555912
35	0xbda5b6cd	-0.08091507
36	0xbdec9c6d	-0.11553273
37	0x3db899d3	0.09013715
38	0xbd9f9e19	-0.077938266
39	0xbdc23b06	-0.09483914
40	0x3df5b079	0.1199655
41	0xbd8d894a	-0.069109514
42	0x3ce2be24	0.027678557
43	0xbd941de7	-0.07232266
44	0x3db82abd	0.08992527
45	0xbdac61d0	-0.08417094
46	0xbd13e4b6	-0.036106788
47	0x3e15819b	0.14600222
48	0x3dc05f2c	0.093931526
49	0x3cbef3df	0.023309646
50	0x3e2f2614	0.1710437
51	0xbd56d171	-0.052445833
52	0xbd65864d	-0.056036282
53	0xbdf8f1c9	-0.12155492
54	0xbd872c73	-0.06600275
55	0xbd55a9ba	-0.052163817
56	0x3d85e932	0.06538619
57	0xbde0afe3	-0.10971048
58	0xbd38e643	-0.04514147
59	0xbce04519	-0.027376698
60	0x3d988307	0.074468665
61	0xbdbd9865	-0.092575826
62	0xbdc528f5	-0.096269526
63	0xbc288531	-0.010285662
64	0x3e215ffe	0.15759274
65	0x3cd23039	0.02565776
66	0x3df7f8f8	0.12108034
67	0x3cc304d9	0.023806022
68	0x3d0220b1	0.03176946
69	0xbdd1c266	-0.10242157
70	0x3a359141	0.00069262466
71	0x3c3b55d3	0.011434036
72	0x3e1f1870	0.15536666
73	0xbd081239	-0.033220503
74	0xbd2c3898	-0.04204616
75	0xbdcf73af	-0.10129487
76	0x3d658531	0.056035224
77	0xbe1e06c4	-0.15432268
78	0x3d219209	0.03944591
79	0xbe0dc9eb	-0.13846557
80	0x3dd878ab	0.105698906
81	0x3d1312f9	0.035906766
82	0x3aa41cbe	0.0012520773
83	0xbd5204eb	-0.05127422
84	0xbcde9011	-0.027168306
85	0xbdbccd91	-0.09218896
86	0x3d98b4f6	0.074563906
87	0xbd860815	-0.0654451
88	0x3ddc2e78	0.10751051
89	0xbd45da00	-0.048303604
90	0x3c18f729	0.009336271
91	0xbd8fbd7c	-0.07018563
92	0x3d869895	0.065720715
93	0x3d165006	0.03669741
94	0xbad8d008	-0.001654149
95	0x3e0586b3	0.13039665
96	0x3c878c08	0.016546264
97	0xbca4cb84	-0.020116575
98	0xbd3578e9	-0.044304762
99	0x3db64034	0.088989645
100	0x3db56c95	0.08858601
101	0xbc9f6b37	-0.019460304
102	0x3d9e911e	0.07742523
103	0x3e2f9bbd	0.17149253
104	0xbde9c248	-0.11414009
105	0x3d31083a	0.043220736
106	0xbd3f7c12	-0.046749182
107	0xbd8a6996	-0.0675842
108	0xbe1f2065	-0.15539701
109	0xbe13f6ef	-0.14449666
110	0xbdf7a808	-0.12092596
111	0xbd65b303	-0.056078922
112	0xbde4f4c7	-0.111795
113	0xbdbf5f18	-0.093443096
114	0x3bad184f	0.005282439
115	0xbcc27ccc	-0.023741148
116	0xbd43715c	-0.04771553
117	0x3dc234ea	0.09482749
118	0x3da87a0e	0.08226405
119	0xbe0ead6a	-0.1393334
120	0x3d5e5366	0.054278754
121	0xbcad9169	-0.021187501
122	0xbd24311c	-0.040085897
123	0xbcbd7a32	-0.023129556
124	0x3dcd614d	0.10028324
125	0x3da2e959	0.07954664
126	0xbd89e0d4	-0.06732336
127	0x3dfb8dcb	0.12282904

weight f4 [16]
0	0x3e848669	0.25883797
1	0x3e13541a	0.14387551
2	0x3e86b8fd	0.2631301
3	0x3da06c34	0.07833138
4	0x3e352dd8	0.17693269
5	0x3e0ddff8	0.13854969
6	0x3e73c11e	0.23804137
7	0x3e4d052c	0.20021504
8	0x3e564493	0.20924596
9	0x3e0efec5	0.13964374
10	0x3e62b5ff	0.22139739
11	0x3e30b0d6	0.17254958
12	0x3e7e12e1	0.24811889
13	0x3e8c0540	0.27347755
14	0x3e2edef4	0.17077237
15	0x3e5a2a6b	0.21305244

bias f4 [16]
0	0xbce86f76	-0.028373461
1	0xbc214125	-0.009842192
2	0xbc34a8bc	-0.011026558
3	0xbbb04bd6	-0.005380134
4	0xbc2af2d0	-0.010433868
5	0xbd79983a	-0.06093619
6	0xbc8c44af	-0.017122595
7	0x3a685367	0.00088625256
8	0xbba04ccd	-0.004891968
9	0xb99da749	-0.0003007001
10	0x3baaa51a	0.00520767
11	0xbc12c9ea	-0.008959273
12	0xbccc532e	-0.024942007
13	0xbb0b78e3	-0.002128177
14	0xbc80fa5b	-0.015744379
15	0xbc528b4d	-0.012850595

running_mean f4 [16]
0	0x3d5349b6	0.051583968
1	0xbcfc9e52	-0.030837212
2	0x3d466174	0.048432782
3	0xbd9aad54	-0.07552591
4	0xbd57ca3e	-0.052683108
5	0x3c4d9a05	0.012548928
6	0xbcec498e	-0.028843667
7	0xbd4910a9	-0.049088154
8	0x3d1a55bb	0.037679415
9	0xbd6c741d	-0.05772792
10	0xbc484941	-0.012224496
11	0x3d0da2bd	0.034579027
12	0x3d9e6888	0.077347815
13	0xbde5bf98	-0.11218184
14	0xbd4ebf48	-0.05047539
15	0x3d2199c9	0.0394533

running_var f4 [16]
0	0x3b2594ae	0.0025265622
1	0x3b8895b1	0.004168235
2	0x3b14e24f	0.0022717898
3	0x3aadf574	0.0013272003
4	0x3b5de399	0.0033857583
5	0x3bb43192	0.0054990733
6	0x3ba2ac36	0.004964377
7	0x3aebd441	0.0017992334
8	0x3b73fa61	0.0037228095
9	0x3b50d4d8	0.0031865146
10	0x3abceb75	0.0014413433
11	0x3b41db70	0.0029580258
12	0x3b4ed30d	0.0031558902
13	0x3b95c812	0.0045709694
14	0x3b4bcecd	0.0031098605
15	0x3b10d610	0.0022100247

weight f4 [8, 1, 3, 3]
0	0xbdc79b57	-0.097464256
1	0x3d727618	0.059194654
2	0x3de37c79	0.11107726
3	0xbb5ae866	-0.003340268
4	0x3e1a5f76	0.15075478
5	0xbd2903ba	-0.04126332
6	0x3d5eec6c	0.05442469
7	0xbcdbaf50	-0.026816994
8	0xbd944c12	-0.07241072
9	0x3ddd7543	0.108133815
10	0xbda57fd3	-0.08081021
11	0xbd1b927d	-0.0379815
12	0x3c2ee448	0.010674544
13	0xbeaaea16	-0.33381718
14	0x3e497e2f	0.19677041
15	0xbd586557	-0.05283102
16	0x3d80ccdb	0.06289073
17	0x3e2100cd	0.15722962
18	0xbd9586dd	-0.07301114
19	0x3e40b6e5	0.18819769
20	0xbe4fff8a	-0.20312324
21	0x3dc7ec4b	0.09761866
22	0x3e1d0008	0.15332043
23	0xbbced7b3	-0.0063123344
24	0x3e0910d5	0.13385327
25	0xbe14bb8f	-0.14524673
26	0xbd219b8c	-0.03945498
27	0xbcf5ccbe	-0.030004855
28	0x3d388e2d	0.045057464
29	0x3e5800c8	0.21094048
30	0xbea39ac0	-0.31954002
31	0xbe7b3dd6	-0.24535307
32	0x3da40614	0.08008972
33	0x3d399d56	0.045316063
34	0xbc634b8a	-0.01387299
35	0xbdec2793	-0.11530986
36	0xbe36f656	-0.17867407
37	0x3de75e2a	0.11297257
38	0x3e6517d8	0.22372377
39	0x3c8f7c0c	0.017515205
40	0x3e1c5cc8	0.15269768
41	0x3d60eae2	0.0549115
42	0x3d7ddac5	0.061976213
43	0xbc008936	-0.007845214
44	0x3d6c811d	0.05774032
45	0xbd8a49aa	-0.067523316
46	0xbc9fd29f	-0.019509612
47	0x3e227ff9	0.1586913
48	0xbbeb6ea1	-0.007184819
49	0x3d95f702	0.073225036
50	0x3e206184	0.156622
51	0xbda3d297	-0.07999151
52	0xbbbb36c8	-0.0057133175
53	0xbcca9686	-0.024729978
54	0x3dd5f2db	0.10446712
55	0x3dbcf6eb	0.09226783
56	0x3d9cee14	0.07662597
57	0x3dd2c78e	0.10291968
58	0xbd98d3f4	-0.07462302
59	0xbdfb5a88	-0.12273127
60	0x3c984108	0.018585697
61	0xbd45bca9	-0.048275623
62	0x3c627444	0.013821665
63	0xbde8288c	-0.11335859
64	0xbdd62329	-0.10455925
65	0xbdd5840c	-0.104255766
66	0xbe3ebb9f	-0.1862626
67	0x3e019c01	0.12657167
68	0x3eadce67	0.33946535
69	0x3cb8d16c	0.022560798
70	0x3bef0439	0.0072942046
71	0x3d98775d	0.07444642

weight f4 [16, 8, 1, 1]
0	0xbcc92eae	-0.024558391
1	0x3c8bdba7	0.017072512
2	0x3db61254	0.088902146
3	0xbcea7ad4	-0.028623022
4	0x3dccedea	0.10006316
5	0x3d73f1e6	0.059556864
6	0x3da9acdb	0.08284923
7	0xbd2e8185	-0.04260399
8	0x3c897f92	0.016784463
9	0xbd206df1	-0.03916735
10	0x3e045492	0.12922886
11	0x3df7eea9	0.12106068
12	0xbe17e032	-0.14831617
13	0xbc0c7763	-0.008573386
14	0xbdb858c9	-0.090013094
15	0x3d25f9e1	0.040521506
16	0x3d009ec6	0.03140142
17	0xbe23976d	-0.15975733
18	0xbdfa92eb	-0.12235054
19	0x3dbf972f	0.09355008
20	0xbdfffd84	-0.12499526
21	0xbdbbc903	-0.09169199
22	0x3d4965a8	0.049169213
23	0x3ddf7118	0.10910243
24	0xbceb5d88	-0.028731123
25	0xbd0583d3	-0.03259642
26	0x3e219c70	0.15782332
27	0xbd82937c	-0.06375787
28	0x3d15d0af	0.03657597
29	0xbd12ede8	-0.035871416
30	0xbce2acfd	-0.027670378
31	0xbe2dd9c6	-0.16977605
32	0x3d7b540a	0.061359443
33	0x3d1f5c09	0.03890613
34	0x3d807fac	0.062743515
35	0x3e1dd43c	0.15412992
36	0xbe18add7	-0.14910065
37	0x3e09eb3b	0.1346864
38	0x3cb3b82f	0.021938412
39	0xbe3264a7	-0.17421208
40	0x3e0c6580	0.13710594
41	0xbda08dfc	-0.07839581
42	0x3daf5449	0.08560998
43	0xbd146962	-0.036233313
44	0xbe68c7b7	-0.22732435
45	0x3cca3cfc	0.024687283
46	0x3d19bd1d	0.037533868
47	0xbe0420b4	-0.129031
48	0xbcc934e9	-0.024561362
49	0xbded9092	-0.1159984
50	0xbda301cb	-0.07959326
51	0xbe1a15b1	-0.15047337
52	0xbd932279	-0.071843095
53	0x3e122383	0.14271359
54	0x3d8e2b84	0.06941894
55	0x3b5fd6c8	0.003415512
56	0xbdb0a2e1	-0.08624817
57	0xbe46e6d1	-0.19423987
58	0xbddbf9e2	-0.10741021
59	0xbd89d6c3	-0.06730416
60	0xbdc1336e	-0.094336376
61	0xbd8e8b16	-0.06960122
62	0xbd022bf2	-0.03178019
63	0x3b808f50	0.003923334
64	0x3df71120	0.12063813
65	0xbd624840	-0.055244684
66	0xbe2a7d18	-0.16649282
67	0x3d92f475	0.07175533
68	0xbc86be07	-0.016448034
69	0x3cd883c3	0.026430016
70	0x3db1e8c7	0.08686977
71	0x3e299121	0.16559269
72	0xbd366f48	-0.04453972
73	0x3e10f4b2	0.14155844
74	0xbd0c6a58	-0.034281105
75	0xbd7c33a8	-0.0615727
76	0xbdbfb94a	-0.09361513
77	0x3cf69e4b	0.030104777
78	0x3e23a499	0.15980758
79	0xbe26b2ca	-0.1627914
80	0x3cc1d151	0.02365938
81	0x3d26e76b	0.04074804
82	0x3dbe5454	0.09293428
83	0x3e91696a	0.28400737
84	0xbc775549	-0.015096017
85	0xbd65d4c9	-0.05611113
86	0x3c69f67a	0.014279956
87	0x3d735e13	0.059415888
88	0x3d3a185b	0.045433383
89	0x3dfb956d	0.1228436
90	0xbd7b66b3	-0.06137724
91	0xbdd118ef	-0.10209834
92	0x3d4cacfd	0.049969662
93	0xbd72c03b	-0.059265357
94	0x3d89ff59	0.06738157
95	0xbde6121c	-0.11233923
96	0xbe2a16a8	-0.16610205
97	0xbe202af4	-0.15641385
98	0x3d855413	0.065101765
99	0xbe2bb17c	-0.16766924
100	0x3c1ebb63	0.009688231
101	0xbce3878b	-0.027774593
102	0x39c30ecd	0.00037204326
103	0xbd0cc4c9	-0.034367356
104	0x3c707e2b	0.014678518
105	0xbd9384d1	-0.07203067
106	0xbb02448f	-0.001987729
107	0x3e4443b1	0.19166447
108	0xbe01980c	-0.12655658
109	0xbca277af	-0.01983246
110	0xbc4a594d	-0.0123503925
111	0xbd0426dd	-0.032263625
112	0xbd73d5ab	-0.05952994
113	0x3dbc9db7	0.09209769
114	0x3ce22ca1	0.027609171
115	0xbc59e3db	-0.013298954
116	0xbd8acf6e	-0.06777845
117	0xbdab6a1b	-0.083698474
118	0x3cc8b57a	0.024500597
119	0x3ded93fd	0.11600492
120	0xbd6d34d1	-0.057911698
121	0x3e34d9bb	0.17661183
122	0xbc714712	-0.014726417
123	0xbd0b4a4e	-0.03400641
124	0xbd9ecb10	-0.07753575
125	0x3cc9c543	0.024630195
126	0x3dc43f7a	0.0958242
127	0xbe11f602	-0.14254001

weight f4 [16]
0	0x3e972173	0.29517707
1	0x3eabeb4b	0.33577952
2	0x3eb74b99	0.35799864
3	0x3ea91ca4	0.33029664
4	0x3eb3176a	0.349788
5	0x3ec56d9f	0.38560197
6	0x3e9472bd	0.28993788
7	0x3ea176e2	0.31536013
8	0x3ea9d5b8	0.33170867
9	0x3ea9ba62	0.3315001
10	0x3ea9543d	0.3307208
11	0x3e93f5f7	0.28898594
12	0x3eb78c29	0.3584912
13	0x3e98d6d4	0.298514
14	0x3e9b12b9	0.30287722
15	0x3eadbe01	0.33934024

bias f4 [16]
0	0x3c17a5db	0.009255852
1	0x3d85719a	0.065158084
2	0x3e12c385	0.14332397
3	0xbcaafbc1	-0.020871999
4	0xbd7a5726	-0.061118267
5	0x3c004060	0.007827848
6	0x3e0b55e4	0.13606983
7	0x3e6ef7cf	0.23336719
8	0x3e37a393	0.17933492
9	0x3e5b63d8	0.21424806
10	0x3c833794	0.016017713
11	0x3dafac48	0.08577782
12	0x3db82e98	0.08993262
13	0x3e175e70	0.14782119
14	0x3cdc235b	0.026872328
15	0x3e11de88	0.14245045

running_mean f4 [16]
0	0x3c651094	0.013981003
1	0xbcb2eb33	-0.021840667
2	0xbc9b5e06	-0.018965732
3	0x3b978b8c	0.0046247896
4	0xbcaa34e5	-0.020777175
5	0xbc353f23	-0.011062416
6	0x3c45d404	0.012074474
7	0xbbfe2743	-0.007756145
8	0xbad4e0bf	-0.0016241296
9	0xb83754c9	-4.3709562e-05
10	0xbcca88ee	-0.024723496
11	0x3c37c698	0.011216782
12	0x3c307b8a	0.0107716415
13	0xbce2cf39	-0.027686702
14	0xbb9cdd66	-0.004787135
15	0xbb2f2c5d	-0.0026729323

running_var f4 [16]
0	0x39621985	0.00021562546
1	0x3a2d7ee8	0.0006618337
2	0x3a54b5b1	0.00081142323
3	0x39c337b8	0.00037234812
4	0x3a8ee71a	0.0010902614
5	0x3a3215b4	0.0006793395
6	0x3a0a9780	0.00052868575
7	0x39ed2e57	0.00045238688
8	0x39f34537	0.0004640014
9	0x3a496a60	0.00076833926
10	0x3a9131d2	0.001107747
11	0x3a0d2ad8	0.00053851074
12	0x39f05992	0.00045843102
13	0x3a4d33b0	0.00078278314
14	0x395f9179	0.0002132113
15	0x3a2fb869	0.00067031995

weight f4 [16, 1, 3, 3]
0	0xbc89cbbf	-0.016820787
1	0xbc368814	-0.011140842
2	0xbd5c1461	-0.053730372
3	0x3d87aeb3	0.06625118
4	0x3d2c232d	0.042025734
5	0x3d832df0	0.06405246
6	0x3dc1ddc5	0.09466127
7	0x3d38a914	0.04508312
8	0xbd264d3f	-0.04060101
9	0xbda23a7d	-0.07921312
10	0xbdc3f9c2	-0.09569122
11	0xbdf1f505	-0.11814312
12	0xbd426e3f	-0.04746842
13	0x3dc4061e	0.09571479
14	0x3dec617f	0.115420334
15	0xbc46be16	-0.012130281
16	0xbdf95d18	-0.12175959
17	0xbd9b7189	-0.075900145
18	0x3d411def	0.047147688
19	0x3e8bd001	0.27307132
20	0xbd238251	-0.0399192
21	0xbd7c9df5	-0.061674077
22	0x3d8c18e6	0.068406865
23	0xbe5a6daa	-0.21330896
24	0xbc9f2f07	-0.019431604
25	0x3d5a75e4	0.053335086
26	0xbd6a052b	-0.057133835
27	0xbcd31b72	-0.025769923
28	0xbdb677f6	-0.089095995
29	0xbcc8c8c9	-0.024509804
30	0xbd45d527	-0.04829898
31	0x3d93932a	0.07205804
32	0xbccc170a	-0.02491333
33	0xbe014f0f	-0.12627815
34	0xbe1db650	-0.15401578
35	0xbde9bca2	-0.11412932
36	0xbe1933b5	-0.14961131
37	0xbcd82b44	-0.026387818
38	0xbc6c58b2	-0.0144254435
39	0xbdeda55b	-0.11603805
40	0xbdb62f42	-0.088957325
41	0xbdb94827	-0.09046965
42	0x3d9aa26d	0.075505115
43	0xbe327a2e	-0.1742942
44	0xbdbfb177	-0.093600206
45	0x3dca7edd	0.098874785
46	0x3e1716bf	0.1475477
47	0x3da3c36b	0.079962574
48	0x3cb475d4	0.022028841
49	0xbccd5117	-0.02506308
50	0xbe1af66f	-0.1513307
51	0xbddb1852	-0.10697998
52	0xbe3e6362	-0.18592599
53	0xbd7a5562	-0.061116584
54	0xbdd285dd	-0.10279439
55	0xbdf3c505	-0.11902813
56	0xbde3fffb	-0.11132809
57	0x3dac24fc	0.08405492
58	0x3cbefd8e	0.023314264
59	0xbdc66bc7	-0.09688526
60	0x3da14160	0.078737974
61	0x3dc9adf5	0.09847633
62	0x3da69b44	0.08135083
63	0x3d9e21e0	0.07721305
64	0xbd2d4b7f	-0.042308327
65	0x3d3e78fb	0.046502095
66	0x3e0d20e9	0.13782085
67	0xbe67ce0c	-0.22637194
68	0x3d46ef9c	0.048568353
69	0xbdb43f2a	-0.0880111
70	0x3c2bffb2	0.010497974
71	0x3e5c7602	0.21529391
72	0x3dd81a7e	0.10551928
73	0x3db235fd	0.08701704
74	0xbe0080c7	-0.12549125
75	0x3e13a6b1	0.14419056
76	0xbe71b025	-0.2360235
77	0xbdc4c11d	-0.09607146
78	0xbd6a5714	-0.05721195
79	0xbbe9b681	-0.007132352
80	0x3dcc69eb	0.0998114
81	0xbdf89752	-0.12138237
82	0x3d0015a5	0.03127064
83	0xbddeed49	-0.10885102
84	0x3e3f40ee	0.18677112
85	0x3e54a9a8	0.20767844
86	0x3c835f7e	0.016036745
87	0x3deadcae	0.114678726
88	0xbdf52dca	-0.11971624
89	0xbda0a259	-0.07843465
90	0x3be41ec0	0.0069616735
91	0x3d43a660	0.04776609
92	0x3c9669e3	0.018361038
93	0xbd9e01d5	-0.07715193
94	0xbe481c8d	-0.19542141
95	0xbd67ccaf	-0.056591686
96	0xbd8051f4	-0.06265631
97	0xbdd913da	-0.105994895
98	0xbe018e74	-0.12651998
99	0xbd944c84	-0.07241157
100	0xbd220a33	-0.039560508
101	0xbdb60960	-0.08888507
102	0x3dd20cdd	0.1025636
103	0x3e3009f0	0.17191291
104	0x3d4ca20e	0.049959235
105	0x3d1cedd6	0.038312756
106	0x3c1ab2a8	0.009442009
107	0x3dae9a5a	0.08525534
108	0x3c41bb59	0.011824452
109	0xbcc1fbb9	-0.023679601
110	0x3da215dc	0.079143256
111	0xbd163045	-0.036667127
112	0x3e0beccc	0.1366455
113	0xbe7833bd	-0.24238487
114	0xbc651aa3	-0.0139834015
115	0x3d86b51f	0.06577515
116	0xbe0fffd8	-0.1406244
117	0xbe1be0dc	-0.15222496
118	0xbe306d51	-0.17229201
119	0xbe0063d7	-0.12538086
120	0x3c5b06db	0.013368334
121	0xbd6ebca6	-0.058285378
122	0xbaa06f95	-0.0012240285
123	0x3bbd28f0	0.0057727024
124	0x3db29c90	0.08721268
125	0x3daf9226	0.085727975
126	0x3da369a0	0.07979131
127	0xbd0de7e7	-0.034644987
128	0x3e05877f	0.13039969
129	0xbd628b50	-0.05530864
130	0x3c9d39bc	0.019192569
131	0xbd7e0a47	-0.06202152
132	0xbd8530df	-0.06503462
133	0xbd196eb8	-0.037459105
134	0x3d80accc	0.062829584
135	0xbc65558e	-0.013997449
136	0xbe08731a	-0.13325158
137	0xbcfced69	-0.030874925
138	0xbdad9482	-0.08475591
139	0x3df49c96	0.11943929
140	0x3dd65afb	0.10466572
141	0xbe36c5a0	-0.17848825
142	0x3de4b2dd	0.11166928
143	0x3cd4dc87	0.025984062

weight f4 [16, 16, 1, 1]
0	0x3d0266d7	0.031836357
1	0xbd13d711	-0.036093775
2	0x3dde95f5	0.10868446
3	0xbd43e438	-0.04782507
4	0x3cff597b	0.031170597
5	0x3c852a70	0.016255587
6	0x3d398c7d	0.045299996
7	0xbe02468a	-0.12722221
8	0xbe5435b3	-0.2072361
9	0xbd824e90	-0.06362641
10	0xbceb54d1	-0.028726967
11	0x3d45e455	0.048313458
12	0xbdce1b0b	-0.10063752
13	0x3c18a6c0	0.0093171
14	0x3d810cc4	0.06301263
15	0x3a859d27	0.001019393
16	0xbc2f176b	-0.010686736
17	0xbc85d98e	-0.01633909
18	0xbe05e91b	-0.13077204
19	0xbbc537a8	-0.0060185976
20	0xbdb6dc21	-0.08928705
21	0xbd95a4c6	-0.07306819
22	0xba8daecb	-0.0010809539
23	0x3e553ebb	0.20824711
24	0xbc02cc04	-0.007983211
25	0x3e02e174	0.12781316
26	0x3c8663d8	0.016405031
27	0x3c4f8d97	0.012668035
28	0xbe0a2e52	-0.13494232
29	0x3d8c24d4	0.06842962
30	0xbc253e7d	-0.010085699
31	0xbdbec339	-0.093145795
32	0xbcdeb034	-0.02718363
33	0xbd2083c1	-0.03918815
34	0xbde41d29	-0.11138374
35	0xbca17003	-0.019706732
36	0xbe04077c	-0.1289348
37	0xbd98159a	-0.07425995
38	0xbcb223ce	-0.021745589
39	0x3dcba64a	0.099438265
40	0x3a26a503	0.0006356986
41	0xbd098223	-0.033571374
42	0xbd3f60de	-0.04672324
43	0x3c9e5c76	0.019331198
44	0xbdfba607	-0.122875266
45	0xbd244681	-0.0401063
46	0x3c5bf048	0.013423987
47	0x3dad94a3	0.08475616
48	0xbd500f2d	-0.050795723
49	0xbc85ce6e	-0.016333785
50	0xbcf566fd	-0.029956335
51	0x3e09a5d6	0.13442168
52	0xbcf9a089	-0.030472057
53	0x3d9d7620	0.07688546
54	0xbe4898a3	-0.19589476
55	0xbdc0734b	-0.093969904
56	0x3d39b3e2	0.045337565
57	0xbbd3cf9f	-0.0064639593
58	0xbe3eae5e	-0.18621203
59	0xbd7a647a	-0.06113098
60	0xbda03dc1	-0.078242786
61	0x3e36731e	0.17817351
62	0x3c5ddeed	0.013541919
63	0x3d25c56a	0.04047147
64	0xbd304401	-0.043033604
65	0x3db8897a	0.090105966
66	0xbd2cd0fe	-0.042191498
67	0xbdce7aab	-0.10081991
68	0x3cc1a937	0.023640258
69	0xbb7f5698	-0.0038961526
70	0x3c82a20b	0.015946409
71	0x3cfce83f	0.030872462
72	0xbd0b586b	-0.03401987
73	0xbe5eb448	-0.2174846
74	0xbe23dc1a	-0.16001931
75	0xbe35b3d4	-0.1774438
76	0x3d5ec542	0.05438734
77	0x3d24b5a2	0.04021228
78	0xbd30719c	-0.043077096
79	0xbd6d2ba7	-0.05790296
80	0x3cc584c1	0.024111154
81	0xbce69114	-0.02814535
82	0xbd2bc74c	-0.04193811
83	0xbda7a991	-0.08186639
84	0xbe9aa366	-0.30202788
85	0xbd9ea361	-0.07746006
86	0xbdec7d20	-0.11547303
87	0x3c8a173b	0.01685678
88	0xbdbf8cab	-0.09353002
89	0x3b5a1bf6	0.0033280826
90	0xbd5004fc	-0.050786003
91	0xbd13c78a	-0.036078967
92	0xbdc644bc	-0.09681079
93	0xbbbe420e	-0.005806214
94	0x3db016a5	0.08598069
95	0xbaa841ef	-0.0012837033
96	0xbbb01f0c	-0.005374795
97	0x3d93164c	0.07181987
98	0xbe25b38f	-0.16181777
99	0xbe0c258f	-0.13686202
100	0x3d1d72d5	0.03843959
101	0xbe156c95	-0.14592202
102	0xbd835c2c	-0.06414065
103	0x3ba2b97e	0.00496596
104	0xbd24d2bb	-0.04024003
105	0xbccdfcc8	-0.02514495
106	0xbd4f804b	-0.05065946
107	0xbc8155c1	-0.015787961
108	0x3d36081e	0.044441335
109	0x3e5de255	0.2166837
110	0xbcff8504	-0.031191356
111	0x3ce2a897	0.02766828
112	0x3cba3800	0.022731781
113	0xbdc6bdaf	-0.09704148
114	0xbd287cb9	-0.04113457
115	0x3d589427	0.052875664
116	0x3d68fca7	0.056881573
117	0x3deabf5b	0.114622794
118	0x3da50d7e	0.08059214
119	0x3e0e127b	0.13874237
120	0x3d3a32e8	0.045458704
121	0xbe0ec4f5	-0.1394232
122	0x3cf35681	0.029704334
123	0xbd14b774	-0.036307767
124	0xbd89bdef	-0.0672568
125	0xbda52148	-0.080629885
126	0x3d115db0	0.035489738
127	0xbc7fe2e4	-0.01561806
128	0xbd089d97	-0.033353414
129	0xbe15a766	-0.14614639
130	0xbc271a1b	-0.010199095
131	0xbd0ec8ce	-0.03485947
132	0x3c24690c	0.010034811
133	0x3e4a7923	0.19772772
134	0xbe082028	-0.13293517
135	0x3bc04b86	0.005868378
136	0x3c1743f4	0.00923251
137	0x3dcc1ea0	0.09966779
138	0x3d86c500	0.065805435
139	0x3e172f36	0.14764103
140	0xbc0de97b	-0.008661623
141	0xbd20c30c	-0.03924851
142	0xbcc3d240	-0.023903966
143	0x3ba3353f	0.0049807127
144	0xbcf66792	-0.030078683
145	0x3cfcee82	0.030875448
146	0x3d02733c	0.031848177
147	0x3d95ad39	0.0730843
148	0xbd82b7a0	-0.0638268
149	0xbdb76094	-0.08953968
150	0xbd194696	-0.03742083
151	0xbd90f93d	-0.070787884
152	0x3e326776	0.1742228
153	0xbde79361	-0.11307407
154	0x3e095464	0.13411099
155	0xbd268029	-0.040649567
156	0x3e2d2928	0.16910231
157	0x3dadf39e	0.08493732
158	0xbdb0ddf2	-0.08636083
159	0x3e7d15c5	0.24715336
160	0xbceb675d	-0.02873581
161	0x3c62a722	0.013833793
162	0x3df600d4	0.12011877
163	0xbdefec4f	-0.11714994
164	0x3c9f8563	0.019472783
165	0x3cd2fae5	0.025754401
166	0x3cb9b85b	0.022670915
167	0xbdaabfff	-0.083374016
168	0xbdd9022b	-0.10596117
169	0xbbd1cc01	-0.006402493
170	0xbd5026cd	-0.050818253
171	0x3c4cc42a	0.012497941
172	0xbd7dd5a4	-0.06197132
173	0xbc217649	-0.009854862
174	0x3d0a1826	0.033714436
175	0x3e0054c0	0.1253233
176	0x3e24ddbe	0.16100213
177	0xbe18059b	-0.14845888
178	0x3d2b40ad	0.041809727
179	0x3c8297cc	0.015941523
180	0x3cade8fb	0.021229258
181	0xbcce3117	-0.025169892
182	0xbdccdf17	-0.100034885
183	0xbb449c7b	-0.0030000496
184	0x3dd69069	0.10476763
185	0x3db02259	0.08600301
186	0x3d0cf6bf	0.034415003
187	0x3dc87531	0.097879775
188	0x3c74d74c	0.014943909
189	0x3d18dd4a	0.037320413
190	0xbc977e7e	-0.018492933
191	0x3d4c267d	0.049841393
192	0xbd4fa094	-0.05069025
193	0x3d778da0	0.0604378
194	0x3e1d0b56	0.15336356
195	0x3cf6ee09	0.0301428
196	0xbddb7cfb	-0.107171975
197	0xbbd06d46	-0.0063606827
198	0xbd708053	-0.05871613
199	0xbe22e32a	-0.15906969
200	0x3dbf8670	0.09351814
201	0xbc987d5d	-0.018614465
202	0x3c1201b8	0.008911543
203	0xbdf2a3a3	-0.118476175
204	0xbd19e79a	-0.037574388
205	0x3d8a37ea	0.06748946
206	0xbd9f8fe2	-0.07791115
207	0xbdbcad1f	-0.09212708
208	0xbdbd88d2	-0.09254612
209	0xbd4b8a89	-0.049692664
210	0xbcfbbd34	-0.030729868
211	0x3d8808f0	0.0664233
212	0x3cb387c9	0.021915333
213	0x3d96e6a2	0.073682085
214	0xbd8d8d42	-0.069117084
215	0x3c3dddc0	0.011588514
216	0xbe17552c	-0.14778584
217	0x3da33210	0.07968533
218	0xbdeee589	-0.11664874
219	0xbd1307c0	-0.035896063
220	0x3bc78bbf	0.006089657
221	0xbda543c7	-0.08069568
222	0xba09f87e	-0.00052631635
223	0x3ca07236	0.01958571
224	0xbd1e9c8d	-0.038723517
225	0xbdf07d1d	-0.117426135
226	0x3e2f7ed8	0.17138231
227	0x3d3be63f	0.045873877
228	0x3d38f268	0.04515305
229	0xbe06a7c4	-0.13149935
230	0x3c8bc91e	0.017063674
231	0x3d879068	0.0661934
232	0x3d57250f	0.052525576
233	0x3dcccae2	0.09999634
234	0x3dcf4563	0.10120656
235	0x3d37414b	0.044740003
236	0xbc97bde7	-0.01852317
237	0xbdc4ae1b	-0.096035205
238	0x3d67e6b5	0.056616504
239	0x3d6376f2	0.055533357
240	0xbd561c38	-0.052273005
241	0xbcae562e	-0.021281328
242	0xbe1eaeb1	-0.15496327
243	0xbb35abfe	-0.0027720924
244	0xbd2c9538	-0.042134494
245	0x3d37157c	0.044698223
246	0x3de02058	0.10943669
247	0xbdcb937b	-0.09940239
248	0xbdeeb32b	-0.11655267
249	0xbe3f06e0	-0.18654966
250	0x3d45d965	0.048303027
251	0xbce642cc	-0.028108023
252	0xbbfed61e	-0.0077769896
253	0xbd4d41f9	-0.050111745
254	0xbc9a7f27	-0.01885946
255	0xbd59f040	-0.053207636

weight f4 [16]
0	0x3ebcd776	0.36883134
1	0x3eb208ce	0.34772342
2	0x3eb2c3a3	0.34914884
3	0x3edfb31c	0.43691337
4	0x3ed77a81	0.4208565
5	0x3ed0b1cb	0.40760645
6	0x3ec03e83	0.37547693
7	0x3eb8aa03	0.3606721
8	0x3ed56ae6	0.4168312
9	0x3ee77528	0.4520657
10	0x3eac4bdb	0.33651623
11	0x3ec914ec	0.39273775
12	0x3ebe775f	0.37200448
13	0x3e965e65	0.29368892
14	0x3ecc1182	0.39857107
15	0x3ecd5d41	0.4011021

bias f4 [16]
0	0xbce86f73	-0.028373456
1	0xbc214122	-0.009842189
2	0xbc34a8be	-0.011026559
3	0xbbb04bcb	-0.005380129
4	0xbc2af2cc	-0.010433864
5	0xbd79983a	-0.06093619
6	0xbc8c44a9	-0.017122583
7	0x3a685356	0.00088625157
8	0xbba04cc5	-0.004891964
9	0xb99da75c	-0.00030070066
10	0x3baaa522	0.0052076736
11	0xbc12c9e9	-0.008959272
12	0xbccc532f	-0.024942009
13	0xbb0b78e0	-0.0021281764
14	0xbc80fa5b	-0.015744379
15	0xbc528b4b	-0.012850593

running_mean f4 [16]
0	0x3b41f28e	0.0029594037
1	0x3c87dc5a	0.016584564
2	0x3c8c3c3c	0.017118566
3	0xbbd6a8a1	-0.006550864
4	0xbbf12874	-0.0073595587
5	0x3cc8bb0f	0.024503259
6	0xbc2226bd	-0.009896931
7	0x3a2a3a88	0.0006493707
8	0x3c1c8e9d	0.009555486
9	0xbcdcc6d7	-0.026950283
10	0x3b58024e	0.0032960358
11	0x3bda0ab6	0.006654109
12	0xbc327a3f	-0.010893404
13	0x3c431525	0.011906897
14	0x3c2d4abd	0.010576901
15	0xbc0f6b9d	-0.008753684

running_var f4 [16]
0	0x39c47f4b	0.00037478874
1	0x3a48db83	0.00076621043
2	0x39ae293e	0.00033218594
3	0x3a36959f	0.00069650443
4	0x3a38da56	0.00070515776
5	0x3a1ed71d	0.0006059276
6	0x3a17d118	0.000579135
7	0x39786c11	0.00023691381
8	0x399d97b9	0.00030058416
9	0x3a0f5dd6	0.0005469
10	0x3960082e	0.00021365352
11	0x39a29342	0.00031008763
12	0x39932344	0.000280643
13	0x3948bd4c	0.00019144005
14	0x3a0c265a	0.0005346291
15	0x39fd688f	0.00048333823

weight f4 [32, 16, 1, 1]
0	0x3d6c9faf	0.057769474
1	0xbd0ac4f1	-0.033879224
2	0xbb4b8d70	-0.0031059645
3	0xbdd9de6a	-0.10638125
4	0x3b9ca61f	0.0047805454
5	0x3d3f85df	0.04675853
6	0xbcae83ef	-0.021303145
7	0x3bd57876	0.006514604
8	0xbd0bd87a	-0.034141995
9	0x3d6ca689	0.057776008
10	0x3ddeff44	0.10888532
11	0x3c64bbe7	0.013960815
12	0x3d9b961c	0.075969905
13	0x3d5bf50a	0.053700484
14	0xbc18418b	-0.00929297
15	0x3d7c9fae	0.06167572
16	0xbca14638	-0.019686803
17	0xbd89b41c	-0.06723806
18	0xbdb0eaa4	-0.08638504
19	0x3d3ce3d2	0.046115704
20	0xbad54f07	-0.0016274162
21	0xbdafc8d2	-0.08583225
22	0xbd55cb38	-0.052195758
23	0x3d2f2c8e	0.0427671
24	0xbd54c43b	-0.051944952
25	0xbd2331ba	-0.039842345
26	0xbd420420	-0.047367215
27	0xbd85a74a	-0.065260485
28	0x3d810ea9	0.06301624
29	0xbd185761	-0.037192706
30	0xbd52b891	-0.051445547
31	0xbd2809c9	-0.041024957
32	0x3cee1603	0.02906323
33	0xbccf4403	-0.025300985
34	0x3cfa4650	0.030551106
35	0xbc9568df	-0.018238483
36	0x3d1c7f65	0.03820743
37	0xbd92ab2f	-0.07161557
38	0xbbbee195	-0.0058252313
39	0x3df89219	0.12137241
40	0x3dcc9870	0.09990013
41	0xbc851bde	-0.01624864
42	0xbd166f35	-0.03672715
43	0x3ddb9314	0.10721412
44	0xbd21e277	-0.039522614
45	0xbdae6065	-0.085144795
46	0x3cdf8762	0.027286235
47	0x3cf93621	0.030421318
48	0x3de21359	0.110388465
49	0x3adee9ec	0.001700697
50	0x3d516281	0.05111933
51	0xbd537f03	-0.0516348
52	0xbcf3d501	-0.029764654
53	0x3c6d5979	0.014486664
54	0xbcb61d8b	-0.022230884
55	0x3d122d61	0.035687808
56	0x3c690019	0.014221215
57	0x3e192235	0.14954455
58	0x3d041796	0.032249056
59	0x3bf56f7a	0.0074900957
60	0xbb20b01f	-0.002451904
61	0x3b91c6c0	0.0044487417
62	0x3b36e1d2	0.0027905595
63	0x3d9a54d7	0.07535713
64	0x3c743336	0.014904788
65	0xbc87a9e5	-0.016560504
66	0xbbc13ff2	-0.0058975155
67	0xbd27cf1a	-0.04096899
68	0x3dba1dab	0.0908769
69	0xbe0cfe65	-0.13768919
70	0x3c94dd1a	0.018171836
71	0x3d6830ea	0.056687273
72	0x3d64d18e	0.05586391
73	0xbd170a04	-0.036874786
74	0x3d06e452	0.032932587
75	0x3dc843af	0.097785346
76	0xbd7ad073	-0.06123395
77	0xbd97cf61	-0.07412601
78	0x3cb1618c	0.02165296
79	0x3da288c1	0.0793624
80	0xbcb3bd05	-0.021940717
81	0x3d061c57	0.03274187
82	0x3b77dd85	0.0037821245
83	0xbde6c45b	-0.112679206
84	0xbd1c8165	-0.038209338
85	0xbcd0d7ec	-0.025493585
86	0xbb3d9661	-0.0028928744
87	0x3d03ea1b	0.032205682
88	0xbdfd1467	-0.12357407
89	0x3c05d3b8	0.008168153
90	0x3d2eb2ad	0.042650867
91	0xbcf1b335	-0.029504398
92	0xbc958be9	-0.01825519
93	0x3d70cd56	0.058789574
94	0xbd51042f	-0.05102938
95	0xbd7134e7	-0.058888342
96	0x3cfb53d9	0.03067963
97	0xbd7d03e8	-0.061771303
98	0x3dbcc163	0.09216573
99	0x3d7b6a02	0.061380394
100	0xbd686510	-0.056737006
101	0x3db52d8f	0.0884658
102	0x3d30ed0c	0.043194816
103	0xbc93cddf	-0.018042503
104	0xbd1663fd	-0.03671645
105	0x3d02451a	0.03180418
106	0x3b93a295	0.0045054653
107	0xbd28afef	-0.04118341
108	0xbd505201	-0.050859455
109	0x3d002b21	0.03129113
110	0xbd80efcc	-0.062957376
111	0xbd37e9a4	-0.04490055
112	0x3e01d21d	0.12677808
113	0x3ada3dee	0.0016650537
114	0x3dc258b6	0.094895765
115	0xbc633732	-0.01386814
116	0xbce18974	-0.027531363
117	0x3d2540b4	0.04034491
118	0x3d4c5560	0.049886107
119	0x3cdcceee	0.02695414
120	0xbc81ff5e	-0.015868839
121	0xb969bb8d	-0.0002229048
122	0xbb3d168f	-0.0028852557
123	0x3d7e1f0a	0.06204132
124	0x3ad0c861	0.0015928858
125	0xbd08e19c	-0.033418283
126	0x3c1891b4	0.009312082
127	0x3ce1c3d4	0.027559198
128	0x3d534c91	0.05158669
129	0xbd394948	-0.045235902
130	0x3c38c81f	0.011278181
131	0xbdbad775	-0.091231264
132	0xbcfec04a	-0.03109755
133	0xbdd3e7c0	-0.10346937
134	0x3d0571b7	0.03257915
135	0x3d444297	0.047915068
136	0x3d52953f	0.051411863
137	0x3d0e7198	0.0347763
138	0x3c39ec74	0.011347879
139	0x3d35a54c	0.044347093
140	0xbdf2ec58	-0.11861485
141	0x3d85c041	0.0653081
142	0xbd58d34c	-0.052935883
143	0x3d0eb87d	0.03484391
144	0x3cf4813c	0.02984678
145	0xbb3c6841	-0.0028748664
146	0x3d752e0a	0.05985836
147	0xbdae39b0	-0.08507097
148	0x3a97db45	0.0011585733
149	0x3ce49723	0.027904099
150	0x3d9b1351	0.07572044
151	0x3d226b16	0.039652906
152	0x3d3daa02	0.04630471
153	0x3db88d3c	0.09011313
154	0x3c00cb77	0.00786101
155	0x3cd5dcfb	0.026106348
156	0xbd4af4a1	-0.049549703
157	0x3d434433	0.04767246
158	0xbd4baab6	-0.04972335
159	0x3c5e6853	0.0135746775
160	0x3c69016c	0.01422153
161	0x3dc3f271	0.095677264
162	0x3ddcf916	0.10789697
163	0xbcaca7d0	-0.021076113
164	0xbdb3d59f	-0.08780979
165	0x3dd4a31d	0.10382674
166	0xbc67abcc	-0.014140081
167	0xbbf3fa8c	-0.007445639
168	0xbd527d06	-0.051388763
169	0x3d84919d	0.06473086
170	0x3cd344d5	0.025789658
171	0xbd98838d	-0.07446966
172	0x3d604b09	0.05475906
173	0xbbf2eca7	-0.007413465
174	0xbd448d81	-0.04798651
175	0xbd8d29c0	-0.06892729
176	0x3d14e84d	0.03635435
177	0xbd4bb829	-0.049736176
178	0x3de9423b	0.113895856
179	0xbd8cffc1	-0.06884719
180	0xbc85e933	-0.01634655
181	0x3d21a550	0.039464295
182	0xbd0eee96	-0.034895502
183	0x3d869f3f	0.065733425
184	0xbd888fd6	-0.066680595
185	0xbc2e509e	-0.010639338
186	0xbd808474	-0.062752634
187	0x3daba4e7	0.08381062
188	0xbd10e51f	-0.035374757
189	0x3df3d8ce	0.119065866
190	0xbd84725f	-0.06467127
191	0xbce93a66	-0.02847023
192	0xbb42aca2	-0.0029704948
193	0x3d49a9b9	0.049234126
194	0xbc160116	-0.009155532
195	0x3ccd69d3	0.025074875
196	0x3d9d4047	0.076782756
197	0xbdfd1608	-0.12357718
198	0xbd90b096	-0.07064931
199	0x3d318ebf	0.043349024
200	0xbd87b5f3	-0.06626501
201	0xbd14df5f	-0.036345836
202	0x3c750c48	0.014956541
203	0xbcbd979a	-0.023143578
204	0xbcf625b6	-0.030047279
205	0x3cb890b8	0.022529945
206	0x3d6be17b	0.05758808
207	0x3ccb2962	0.024800006
208	0xbbbbd99e	-0.005732729
209	0xbc493b03	-0.012282136
210	0x3dc64919	0.09681911
211	0x3ad62ffb	0.0016341204
212	0xbe06563e	-0.13118836
213	0x3d8698e4	0.0657213
214	0xbc95e9a9	-0.018299894
215	0xbd98c7b5	-0.07459966
216	0xbe0d2de6	-0.1378704
217	0x3d823512	0.063577786
218	0xbc011e69	-0.0078807855
219	0xbdf62f7a	-0.12020774
220	0x3cfc3b54	0.030790009
221	0x3d50ac26	0.050945424
222	0xbd9946f0	-0.074842334
223	0xbe140ad4	-0.14457256
224	0x3d62a257	0.0553306
225	0xbcd7668c	-0.026294015
226	0x3d84ad02	0.06478311
227	0x3dcb7abb	0.09935518
228	0x3d70c4db	0.058781486
229	0x3cd32f64	0.025779434
230	0x3cd82990	0.026387006
231	0xbc81598f	-0.015789775
232	0x3d812238	0.06305355
233	0xbd800ba7	-0.062522225
234	0xbc8f7a39	-0.017514335
235	0x3d63df32	0.055632778
236	0x3d8c0163	0.06836202
237	0xbcf2ffcb	-0.029662987
238	0xbc260b7a	-0.010134572
239	0x3d846493	0.064644955
240	0xbd6297e5	-0.05532064
241	0x3d32412d	0.043519188
242	0xbda7beec	-0.08190712
243	0x3d3443a9	0.04400984
244	0x3cea1621	0.028575005
245	0xbdc1a053	-0.094544075
246	0x3d4be17b	0.04977558
247	0xbd4b1456	-0.04957994
248	0x3ce3b4db	0.0277962
249	0xbd0cfe61	-0.034422282
250	0xbdc1ce92	-0.09463228
251	0xbd0d0760	-0.03443086
252	0x3c8fd654	0.017558254
253	0xbcf134f8	-0.029444203
254	0xbce0afd4	-0.027427591
255	0xbda0255d	-0.078196265

weight f4 [32]
0	0x3df07a53	0.117420815
1	0x3e4e94de	0.20173976
2	0x3e262f2e	0.16228935
3	0x3e46ab93	0.19401388
4	0x3e2c82f4	0.1684683
5	0x3e61e0c9	0.22058405
6	0x3e87caab	0.2652181
7	0x3e448aea	0.19193617
8	0x3e723310	0.23652291
9	0x3e5d5175	0.21613105
10	0x3e88d191	0.26722386
11	0x3e28e82e	0.1649482
12	0x3e68b2af	0.22724412
13	0x3e70aa32	0.23502424
14	0x3e1f8458	0.15577829
15	0x3e54b9a3	0.2077394
16	0x3e3e5c82	0.18589976
17	0x3e811f7e	0.2521934
18	0x3dd60ddd	0.10451863
19	0x3e808c89	0.2510722
20	0x3e5059ff	0.20346831
21	0x3e84e40b	0.25955233
22	0x3e3e88b8	0.18606842
23	0x3e4f9217	0.20270573
24	0x3e27f81b	0.16403238
25	0x3e5d8045	0.21630962
26	0x3e68e21d	0.22742505
27	0x3e5a4a1a	0.2131733
28	0x3e7f3ba1	0.2492509
29	0x3e5e6100	0.2171669
30	0x3e391cbb	0.18077366
31	0x3e7e127c	0.24811739

bias f4 [32]
0	0xbc1c5138	-0.009540848
1	0xbcedfade	-0.029050287
2	0xbc2ca7aa	-0.010538021
3	0xbc0adaf0	-0.00847505
4	0x3c0ad5f1	0.008473859
5	0xbc0d6935	-0.00863104
6	0xbbfa4c02	-0.0076384554
7	0xbcfdaf2f	-0.030967323
8	0x3c1b9d20	0.009497911
9	0xbb4e204b	-0.0031452354
10	0xbb88d092	-0.004175254
11	0xbc12f3e8	-0.008969285
12	0x3c2c7613	0.010526198
13	0xbcac676c	-0.02104541
14	0xbc21815b	-0.009857501
15	0xbb418eca	-0.0029534572
16	0x3b05e4bf	0.0020430533
17	0xbac30185	-0.0014877772
18	0xbcdceab9	-0.026967393
19	0xbc47f244	-0.012203757
20	0xbc6e1b6a	-0.014532903
21	0xbc989e2c	-0.01863011
22	0xbcf70727	-0.030154778
23	0xbc217742	-0.009855093
24	0xbc83139f	-0.016000567
25	0x3b5d636e	0.0033781189
26	0xbd165a33	-0.036707114
27	0xbc8ca287	-0.017167343
28	0x3c05e672	0.008172618
29	0xbac0511a	-0.0014672608
30	0x3af1728d	0.001842098
31	0xbbc9f1a3	-0.0061628385

running_mean f4 [32]
0	0x3d0d4425	0.034488816
1	0xbdbcc801	-0.09217835
2	0x3d430ba2	0.047618516
3	0x3da08b65	0.078390874
4	0x3d2c380e	0.042045645
5	0xbd9a0726	-0.07520895
6	0xbc3be9b4	-0.011469293
7	0x3d64ba95	0.055842
8	0xbc074a21	-0.00825742
9	0x3d435e8a	0.04769758
10	0xbb613fbc	-0.0034370264
11	0xbcd11dd3	-0.025526917
12	0x3c3e0d33	0.011599827
13	0xbdde259e	-0.10847019
14	0x3da7786a	0.08177264
15	0xbd56dce5	-0.052456755
16	0xbdb57a6d	-0.088612415
17	0xbd8e12b9	-0.06937165
18	0x3ce19255	0.027535597
19	0xbda4122d	-0.08011279
20	0xbce2d01a	-0.027687121
21	0x3dd881ef	0.10571658
22	0xbdc50f5c	-0.0962207
23	0x3d936728	0.0719741
24	0xbd3778fc	-0.044793114
25	0xbcdfea45	-0.027333388
26	0xbdf8bfc0	-0.121459484
27	0x3dc3428e	0.09534179
28	0x3d15e5fb	0.03659628
29	0x3da09275	0.078404345
30	0x3d27e734	0.040991977
31	0xbda04ca1	-0.07827116

running_var f4 [32]
0	0x3b997c2f	0.0046839933
1	0x3c2eb57f	0.010663389
2	0x3baf282e	0.005345366
3	0x3c11cd59	0.008899056
4	0x3bb53936	0.0055305017
5	0x3bd95232	0.006632113
6	0x3bb154eb	0.0054117343
7	0x3c26b5bf	0.010175168
8	0x3b5b2599	0.0033439158
9	0x3bde02e0	0.006775245
10	0x3c05a047	0.008155889
11	0x3b583585	0.0032990885
12	0x3bd32c30	0.0064444765
13	0x3c3daef7	0.011577359
14	0x3c43048b	0.011902939
15	0x3bf751cf	0.007547594
16	0x3bf9bcb5	0.0076213726
17	0x3bed1aca	0.0072358595
18	0x3b715324	0.0036823237
19	0x3b941349	0.0045189005
20	0x3c1138c2	0.00886363
21	0x3c2dda0f	0.010611071
22	0x3beabef3	0.007163876
23	0x3bb2db92	0.0054583037
24	0x3b9a7ec1	0.0047148173
25	0x3ba5ae9f	0.005056217
26	0x3c114ab2	0.008867906
27	0x3bd9fa70	0.006652169
28	0x3b91a954	0.0044452343
29	0x3c65726f	0.014004334
30	0x3bd09c1f	0.0063662673
31	0x3b9fc7fa	0.004876134

weight f4 [16, 1, 3, 3]
0	0xbaacc3ce	-0.0013180913
1	0x3d9f81b0	0.07788408
2	0x3e528f39	0.20562448
3	0xbda18bfd	-0.07888029
4	0xbd6c1879	-0.057640526
5	0x3ddecc89	0.10878856
6	0xbe1d72e2	-0.15375856
7	0xbd494d9b	-0.049146276
8	0xbdd9529e	-0.10611461
9	0x3d4dc3c2	0.050235517
10	0xbc75fd13	-0.015013951
11	0x3d7fa04b	0.062408727
12	0xbd5db6b4	-0.054129317
13	0xbe3e409d	-0.18579336
14	0xbdef8cc5	-0.116967715
15	0xbce70779	-0.028201805
16	0xbe18349b	-0.14863817
17	0xbdf096b4	-0.11747494
18	0xbd9d53ba	-0.07681985
19	0xbc6b315d	-0.014355031
20	0x3ca3bae6	0.019986581
21	0x3c7a953e	0.015294371
22	0x3d8142e9	0.0631159
23	0xbd4612af	-0.04835766
24	0xbdf98cf4	-0.12185088
25	0xbd4b6619	-0.049657915
26	0xbe35283c	-0.1769113
27	0x3d761bce	0.06008511
28	0x3d9f5368	0.0777958
29	0x3ddb046f	0.10694205
30	0x3c7a5af8	0.015280478
31	0x3db0ea1c	0.08638403
32	0x3db16506	0.08661847
33	0xb95ce853	-0.00021067382
34	0x3e1ac2f0	0.15113425
35	0x3da1e539	0.07905049
36	0xbd464df4	-0.048414186
37	0xbdb5ac18	-0.08870715
38	0x3d30ec79	0.043194268
39	0xbe5bdd4c	-0.21471137
40	0xbde77b6c	-0.11302838
41	0x3e1e8700	0.15481186
42	0xbe1dbc88	-0.1540395
43	0xbd5282dc	-0.05139433
44	0x3dcf683d	0.10127304
45	0x3e012b39	0.12614144
46	0x3e130a0b	0.143593
47	0x3e1cbd39	0.15306558
48	0x3c50b931	0.012739466
49	0x3daa2aa6	0.08308916
50	0x3cce345e	0.025171455
51	0xbd94ccb5	-0.07265607
52	0xbda068cf	-0.07832491
53	0xbe3fde8b	-0.18737237
54	0x3e231a30	0.15927958
55	0x3e33e91f	0.17569397
56	0x3e6badfd	0.2301559
57	0x3d4aec4b	0.049541753
58	0x3bd12553	0.006382623
59	0xbde2cd9c	-0.11074373
60	0xbe170193	-0.14746694
61	0xbe03aebb	-0.12859623
62	0xbd1b5055	-0.037918407
63	0x3c851f27	0.016250206
64	0x3ca94d0f	0.020666627
65	0x3e2c9794	0.16854697
66	0xbd0cbc52	-0.034359284
67	0x3dfee3b3	0.12445774
68	0x3cb6b0bc	0.02230107
69	0x3d284e9d	0.041090596
70	0x3d8f74ef	0.07004725
71	0x3d09cd7b	0.033643227
72	0x3e247971	0.16061951
73	0xbd3f4455	-0.046696026
74	0xbe136c5b	-0.14396803
75	0x3e2c60aa	0.1683375
76	0x3d902f24	0.07040241
77	0x3c81a4c9	0.015825646
78	0x3d9413cc	0.072303385
79	0xbd219216	-0.03944596
80	0x3d045adb	0.03231321
81	0x3cf2c1fd	0.029633516
82	0xbc232934	-0.009958554
83	0x3d1597c4	0.036521688
84	0x3e0d3aef	0.13792013
85	0x3e02c336	0.1276978
86	0x3df35536	0.11881487
87	0x3d652c10	0.055950224
88	0x3e172553	0.14760332
89	0x3d7c7ea2	0.061644204
90	0x3d92d1df	0.07168936
91	0x3d4e388c	0.050346896
92	0xbd160864	-0.036629096
93	0x3d16c69d	0.036810506
94	0xbc96fe47	-0.018431796
95	0x3d19ead5	0.03757747
96	0xbdf47eca	-0.119382456
97	0xbda579bf	-0.08079862
98	0x3ce30f2d	0.027717197
99	0xbd4e1978	-0.050317258
100	0x3dcd93b7	0.1003794
101	0xbd3f6a9b	-0.046732526
102	0xbd6ca3fe	-0.057773583
103	0xbe3b7ad3	-0.18308572
104	0xbdadae1f	-0.084804766
105	0x3c5d44a3	0.013505134
106	0xbb7e65b8	-0.0038817953
107	0xbd1fa373	-0.038974237
108	0x3db28b48	0.08717972
109	0xbda8c45c	-0.082405776
110	0xbdb99be9	-0.090629406
111	0x3e001d32	0.12511137
112	0xbca114a1	-0.019663157
113	0xbd4b2eb4	-0.049605086
114	0x3df7fadb	0.12108394
115	0x3e173c63	0.1476913
116	0x3d761f4d	0.060088445
117	0x3cc3523a	0.02384292
118	0x3c3e1f0c	0.011604082
119	0x3c6cc62a	0.014451543
120	0xbddb98bd	-0.10722492
121	0xbe011926	-0.1260725
122	0xbd819da1	-0.063288935
123	0xbe408cd3	-0.1880372
124	0xbd16974b	-0.036765378
125	0xbdac2e6a	-0.0840729
126	0x3c88f186	0.01671673
127	0x3cc70c86	0.024297964
128	0xbd61848e	-0.055058055
129	0xbe16fff9	-0.14746083
130	0xbda76dc6	-0.081752345
131	0xbe49416f	-0.19653867
132	0x3c46b173	0.012127268
133	0x3d71f13b	0.059067946
134	0xbe068393	-0.13136129
135	0xbe11002d	-0.14160223
136	0xbd46b074	-0.048508123
137	0x3db95254	0.09048906
138	0xbddfa84b	-0.10920771
139	0x3d2c2225	0.04202475
140	0x3d66dd30	0.056363285
141	0xbd2665f3	-0.04062457
142	0x3d9eaea6	0.07748155
143	0x3e10d996	0.14145502
