facialExpressionRecognitionLib/src/main/assets/model.pt (torch, 351788 bytes, 80 tensors)

weight f4 [8, 1, 3, 3]
0.20111373 0.19586906 0.19781674 0.043811172 -0.01719164 0.011126274 -0.22809422 -0.25837752
-0.15447538 -0.11717595 0.12064873 -0.06457639 0.054866333 0.23491085 0.034384094 -0.068713255
-0.14510778 -0.056261104 0.063739166 -0.0043560113 -0.053065173 0.0055299937 -0.015240176 -0.007812246
0.29115185 -0.10774537 -0.132081 -0.06650155 -0.11456442 -0.012146543 -0.14296925 0.06922769
0.089654185 -0.06574869 0.15854834 0.15717845 0.07466794 -0.05475777 -0.05633502 -0.077989526
-0.118384 -0.099767506 0.019021876 0.061817333 0.09572661 0.008968766 0.06051979 0.016965397
-0.09410847 -0.1455369 -0.04161018 0.03940751 -0.06928586 -0.004789818 -1.3448681e-05 8.247166e-06
2.5413574e-05 5.8260146e-05 0.000171045 8.5485935e-06 -0.00015380928 3.0878593e-06 -0.00013374463 -0.004086629
-0.023860836 0.013508283 -0.19122739 0.31244522 0.0067689526 -0.06411362 -0.0014683064 -0.036806628
00000000: c2f0 4d3e e691 483e 7990 4a3e 5873 333d
00000010: 7bd5 8cbc fa4a 363c 8891 69be 0f4a 84be
00000020: cb2e 1ebe f2f9 efbd ae16 f73d a040 84bd
00000030: 85bb 603d 788c 703e 56d6 0c3d 89b9 8cbd
00000040: 2297 14be 0b72 66bd ae89 823d dfbc 8ebb
00000050: de5a 59bd f334 b53b eeb1 79bc dffd ffbb
00000060: db11 953e 9ba9 dcbd 3e40 07be f731 88bd
00000070: c0a0 eabd 4b02 47bc 8866 12be 3fc7 8d3d
00000080: 9d9c b73d 40a7 86bd 7f5a 223e 63f3 203e
00000090: 81eb 983d af49 60bd 8dbf 66bd f9b8 9fbd
000000a0: 5073 f2bd e852 ccbd c4d3 9b3c 2c34 7d3d
000000b0: 500c c43d bbf1 123c 99e3 773d 04fb 8a3c
000000c0: f1bb c0bd a007 15be 706f 2abd c569 213d
000000d0: bfe5 8dbd e8f3 9cbb a5a1 61b7 4f5d 0a37
000000e0: 3c2f d537 5b5c 7438 8b5a 3339 ee6b 0f37
000000f0: dd47 21b9 0539 4f36 cd3d 0cb9 21e9 85bb
00000100: cd77 c3bc d851 5d3c 1dd1 43be d2f8 9f3e
00000110: 17ce dd3b 004e 83bd 3074 c0ba 8cc2 16bd

weight f4 [8]
0.1387223 0.15965219 0.1463576 0.1374097 0.17195632 0.24339174 0.00021810645 0.18526237
00000000: 380d 0e3e dd7b 233e c4de 153e 21b5 0c3e
00000010: 5115 303e af3b 793e 81b3 6439 6bb5 3d3e

bias f4 [8]
0.06079141 0.10770313 0.15023088 0.13180347 -0.0131110605 -0.187988 -0.00015049316 0.1841341
00000000: 6a00 793d 7593 dc3d 20d6 193e 7df7 063e
00000010: c6cf 56bc ed7f 40be b3cd 1db9 a68d 3c3e

running_mean f4 [8]
-0.0023299486 -0.0029490588 0.022697462 0.03527506 -0.08131853 -0.11979151 -1.3495188e-05 0.0063482644
00000000: 0db2 18bb ff44 41bb 07f0 b93c 957c 103d
00000010: 548a a6bd 4055 f5bd 6469 62b7 1a05 d03b

running_var f4 [8]
0.0071851355 0.0007622767 0.0015836072 0.002543659 0.0020330602 0.0034374988 7.002591e-10 0.0007151337
00000000: 4971 eb3b 86d3 473a 0a91 cf3a 84b3 263b
00000010: 173d 053b a947 613b 5a7c 4030 cf77 3b3a

weight f4 [8, 8, 3, 3]
-0.010249928 -0.048988335 -0.055056855 -0.05330963 -0.060027875 -0.03893359 -0.0081809545 -0.065175556
-0.08338424 0.009376851 0.006356275 0.017288025 -0.0060128313 -0.019836 -0.021028625 0.023204211
-0.0379522 -0.031091055 -0.028904319 -0.009102979 -0.02785836 0.028317424 0.013191415 0.026426706
-0.06160213 0.017349076 0.11797012 -0.011131092 -0.011494819 -0.04643539 0.049253937 0.032646623
-0.051952563 0.062262215 0.11138112 0.034060087 0.023471374 0.040432822 0.017869037 -0.06132652
-0.06210992 -0.051032357 -0.06648165 -0.02535561 0.022244258 -0.07497989 -0.06803628 -0.017418178
-0.032019183 -0.024659427 0.009088535 0.032320533 0.022039127 0.04850749 -7.604716e-05 -8.790441e-05
-7.411096e-05 -1.9908095e-05 -3.0059324e-05 -1.0545743e-05 7.053707e-05 6.4725566e-05 8.44027e-05 -0.04507917
0.008298129 0.012389746 0.006717415 -0.028922308 -0.02786331 0.0072029065 0.014780818 0.009731311
-0.057701536 -0.010574361 0.03150612 0.017099215 0.011233861 0.015445888 0.03321143 0.03507808
-0.034729484 -0.010797498 -0.015719067 -0.034903497 0.005454694 0.06631604 0.017001642 0.05046091
-0.014511358 0.02404933 -0.02132326 0.09460772 0.0041237855 -0.0024878194 0.08293627 -0.06424778
0.031684004 0.050219297 0.0077159805 0.06906947 -0.033550594 -0.01081234 0.045776002 -0.11612412
0.020026132 0.011327558 -0.061608076 0.05024062 0.021412116 -0.033206884 -0.024774263 -0.0067390273
-0.0010948399 0.02750048 0.04627218 -0.036200766 0.015121714 -0.026648423 -0.029022219 -0.013660526
0.01136734 0.05558972 0.02803937 -0.039894715 0.0072084935 0.052497104 7.743224e-06 4.2020924e-06
1.9377974e-05 8.07435e-05 -4.552681e-05 3.6910755e-05 8.752623e-05 -5.3406096e-05 4.775228e-05 -0.049944684
-0.03543736 -0.04263141 0.039902996 -0.10019165 0.056576274 -0.00678074 -0.059847645 0.08576115
-0.04364929 -0.04184615 0.026822532 -0.059114955 -0.06291908 -0.0036741928 -0.05360375 -0.034931812
0.010170222 -0.038129307 -0.017542217 0.043426145 -0.040666707 -0.13105884 -0.036799192 0.07220083
0.10109208 0.005855687 0.011802172 0.048047487 -0.08754611 -0.057270877 0.005857544 0.080185264
0.06276027 -0.011179591 -0.013912336 0.027296135 -0.014678129 -0.06614991 0.08266701 0.0068842624
-0.04386213 -0.02517918 -0.010664815 -0.03907518 0.012760475 0.022348713 0.025303418 -0.026980061
0.0045503853 0.05192539 -0.010926672 -0.040295947 -0.054274116 0.013717536 0.037119877 0.009363491
-0.007950974 0.06431138 0.097666904 -0.06507159 -0.10172432 -0.02243718 -4.961955e-05 -5.8850394e-05
-4.997252e-05 2.1322752e-05 6.0743832e-06 -4.643605e-05 1.7909222e-05 5.55413e-05 8.257526e-06 0.0032716694
-0.0071102036 0.027182586 0.00814741 -0.109236024 -0.041418504 0.055169184 0.11906894 -0.06252467
0.07172833 0.029477464 -0.005616313 0.07039944 0.063870415 0.05508063 0.0806601 0.088641465
0.08473105 0.004955186 -0.0050522354 0.030425105 0.027752332 0.005144691 0.0019791748 0.01263386
-0.0041771578 -0.016542096 0.018641893 -0.015600596 -0.06111415 0.051711485 -0.018442854 -0.035867505
-0.010506939 -0.032477945 -0.0123235835 -0.02709146 -0.044619948 -0.043930743 -0.0031857975 -0.029832445
-0.03257318 -0.0056406613 0.012349557 -0.0153248105 -0.030787881 -0.053327713 -0.06880161 0.026523508
00000000: 50ef 27bc fea7 48bd 4c83 61bd 335b 5abd
00000010: cadf 75bd d478 1fbd 6909 06bc c37a 85bd
00000020: 5bc5 aabd 5da1 193c 4d48 d03b 9e9f 8d3c
00000030: 4907 c5bb 1b7f a2bc 3944 acbc c216 be3c
00000040: c473 1bbd abb2 febc c0c8 ecbc a924 15bc
00000050: 3737 e4bc f1f9 e73c ce20 583c d27c d83c
00000060: 8452 7cbd a61f 8e3c 519a f13d 2f5f 36bc
00000070: c454 3cbc 0933 3ebd 7fbe 493d 77b8 053d
00000080: 36cc 54bd aa06 7f3d c91b e43d 9782 0b3d
00000090: 0a47 c03c e39c 253d 1662 923c 8431 7bbd
000000a0: f966 7ebd 4e07 51bd 8827 88bd 91b6 cfbc
000000b0: 9739 b63c 0e8f 99bd 9b56 8bbd 91b0 8ebc
000000c0: 8c26 03bd 9102 cabc 14e8 143c 8962 043d
000000d0: 668b b43c caaf 463d 827b 9fb8 5259 b8b8
000000e0: 056c 9bb8 4f00 a7b7 e827 fcb7 9fed 30b7
000000f0: 4ded 9338 46bd 8738 5b01 b138 f0a4 38bd
00000100: e0f4 073c 5cfe 4a3c c31d dc3b 7aee ecbc
00000110: 9941 e4bc 5c06 ec3b 3e2b 723c 1470 1f3c
00000120: 7258 6cbd 1640 2dbc 900c 013d a713 8c3c
00000130: 3a0e 383c c010 7d3c b508 083d 08ae 0f3d
00000140: 8140 0ebd fde7 30bc 46c5 80bc f8f6 0ebd
00000150: 4abd b23b b4d0 873d 0747 8b3c 19b0 4e3d
00000160: 0cc1 6dbc 1a03 c53c 1eae aebc b1c1 c13d
00000170: d220 873b af0a 23bb 7eda a93d 5794 83bd
00000180: 16c7 013d c0b2 4d3d 56d6 fc3b 4b74 8d3d
00000190: 596c 09bd 3e26 31bc 9e7f 3b3d 7cd2 edbd
000001a0: d80d a43c 3997 393c c058 7cbd 1cc9 4d3d
000001b0: 7668 af3c f103 08bd 65f3 cabc 0fd3 dcbb
000001c0: bb80 8fba b048 e13c e687 3d3d 4147 14bd
000001d0: 11c1 773c cb4d dabc 01c0 edbc 66d0 5fbc
000001e0: 143e 3a3c 0cb2 633d d2b2 e53c a468 23bd
000001f0: 3a35 ec3b 3407 573d e5e8 0137 b3ff 8c36
00000200: e28d a237 d654 a938 0af4 3eb8 9fd0 1a38
00000210: 498e b738 5c00 60b8 9f49 4838 cc92 4cbd
00000220: c426 11bd 469e 2ebd 5371 233d 4831 cdbd
00000230: 86bc 673d f830 debb ce22 75bd 8ba3 af3d
00000240: 99c9 32bd de66 2bbd edba db3c 8622 72bd
00000250: b8db 80bd baca 70bb 9b8f 5bbd a914 0fbd
00000260: 01a1 263c 7a2d 1cbd b2b4 8fbc 9ddf 313d
00000270: 2292 26bd 4a34 06be c0ba 16bd 07de 933d
00000280: 5d09 cf3d 10e1 bf3b e65d 413c 71cd 443d
00000290: 604b b3bd de94 6abd a4f0 bf3b 2c38 a43d
000002a0: 7588 803d 9a2a 37bc 91f0 63bc 259c df3c
000002b0: 897c 70bc 9b79 87bd 524d a93d 6195 e13b
000002c0: c7a8 33bd 9144 cebc 7abb 2ebc 4c0d 20bd
000002d0: 5011 513c a614 b73c 1d49 cf3c 4a05 ddbc
000002e0: 661b 953b b8af 543d c905 33bc 5d0d 25bd
000002f0: 894e 5ebd 84bf 603c 030b 183d 5469 193c
00000300: cd44 02bc afb5 833d 9605 c83d 4144 85bd
00000310: d754 d0bd 2dce b7bc 961e 50b8 21d6 76b8
00000320: 9699 51b8 43de b237 8ed2 cb36 54c4 42b8
00000330: c33b 9637 04f5 6838 ce89 0a37 8169 563b
00000340: b6fc e8bb 04ae de3c b77c 053c 23b7 dfbd
00000350: 73a6 29bd 15f9 613d 6bda f33d ef0c 80bd
00000360: 4de6 923d b97a f13c 0c09 b8bb 952d 903d
00000370: 7ece 823d 3a9c 613d 1f31 a53d a889 b53d
00000380: 7987 ad3d 1d5f a23b 398d a5bb 123e f93c
00000390: dc58 e33c cc94 a83b 0bb5 013b 40fe 4e3c
000003a0: 8ae0 88bb 4a83 87bc e2b6 983c a499 7fbc
000003b0: d552 7abd 6ccf 533d 7815 97bc cee9 12bd
000003c0: 4c25 2cbc 9807 05bd dbe8 49bc e9ee ddbc
000003d0: 68c3 36bd b9f0 33bd d0c8 50bb 2c63 f4bc
000003e0: 746b 05bd 4cd5 b8bb cc55 4a3c ea14 7bbc
000003f0: de36 fcbc 296e 5abd dce7 8cbd d447 d93c

weight f4 [8]
0.30477765 0.2579114 0.25724596 0.2847972 0.26742676 0.2719068 0.2741416 0.28450045
00000000: d10b 9c3e f70c 843e beb5 833e f0d0 913e
00000010: 29ec 883e 5e37 8b3e 4a5c 8c3e 0baa 913e

bias f4 [8]
0.06926794 0.23402086 0.2795235 0.026102617 0.09010182 0.18518898 0.19156489 -0.025770964
00000000: 5adc 8d3d 2aa3 6f3e b41d 8f3e 28d5 d53c
00000010: 4e87 b83d 2ea2 3d3e 9629 443e a11d d3bc

running_mean f4 [8]
-0.024472477 0.018685604 -0.033292633 0.021238772 -0.013105797 -0.023074377 0.042184986 0.0063669817
00000000: 817a c8bc 8d12 993c db5d 08bd effc ad3c
00000010: b2b9 56bc 7a06 bdbc 2aca 2c3d 1da2 d03b

running_var f4 [8]
0.00278447 0.0016737102 0.003151669 0.0036362587 0.0018216016 0.0022333171 0.002716024 0.0025930766
00000000: a87b 363b 6560 db3a 3b8c 4e3b 4c4e 6e3b
00000010: cfc2 ee3a d85c 123b 52ff 313b 9bf0 293b

weight f4 [16, 8, 1, 1]
0.0006883569 0.010863864 0.0414522 0.10197936 -0.014016785 0.046844278 0.05200245 0.042335905
-0.08163876 -0.017265242 -0.052594762 -0.15769644 -0.05182068 -0.030373946 -0.07601448 -0.038180593
0.08435196 0.080228165 -0.05954885 -0.025247246 -0.0035494682 0.006249653 -0.0852071 0.009268213
0.00036818875 0.0009569588 -0.001152061 0.0011244433 -0.00060514954 -0.00094618835 0.00043335767 0.00028814923
0.074146576 -0.015327462 0.06045759 0.0018195029 0.059500966 -0.028320618 0.010481682 0.0014851752
-0.012908102 0.026436925 -0.00023624249 -0.008876628 -0.04326582 0.023894304 0.053811233 -0.032539703
-0.020489799 0.032171506 -0.009952643 -0.0018913619 0.00827183 5.610714e-05 -0.0077161137 -0.0021641694
-0.001121887 -0.0398326 0.03953119 -0.017733173 0.05816697 0.051955555 -0.021430887 0.026632098
-0.016295787 0.004814029 0.039499257 0.17107835 0.0067566824 -0.02963077 0.05533665 -0.002228331
-0.0075598955 -0.022477316 0.0045884284 0.014359253 0.03760722 0.007969348 -0.015095675 0.027018508
0.15402605 -0.029642586 0.015849266 -0.025749264 0.035741214 0.0031607128 -0.05605109 -0.041465923
0.010677307 -0.05540991 0.0039540287 -0.037258048 -0.007972515 0.024720345 0.051374186 0.050243866
0.15351047 -0.0041626687 0.019466113 -0.15030281 0.03842797 -0.0061789923 0.10258562 -0.016416494
0.020261463 0.026079416 0.048778646 0.1210197 0.056071166 0.0375706 0.1257229 0.04796613
0.04592163 -0.0025428797 0.015149463 0.014429885 0.044210773 -0.017925048 0.058392424 -0.026505869
-5.4615823e-05 8.376029e-05 4.514977e-05 -1.14964005e-05 2.0230718e-05 -4.0501516e-05 4.1215448e-05 1.30085355e-05
00000000: d972 343a 59fe 313c c8c9 293d 8eda d03d
00000010: a8a6 65bc c9df 3f3d 8500 553d 6a68 2d3d
00000020: 3932 a7bd d66f 8dbc 9b6d 57bd 2d7b 21be
00000030: ec41 54bd c8d2 f8bc 7bad 9bbd 4163 1cbd
00000040: b8c0 ac3d aa4e a43d 7fe9 73bd 50d3 cebc
00000050: 329e 68bb e4c9 cc3b 0f81 aebd b4d9 173c
00000060: 7509 c139 6bdc 7a3a c100 97ba 0e62 933a
00000070: e6a2 1eba a009 78ba 4834 e339 bc12 9739
00000080: 29da 973d 0920 7bbc 61a2 773d 637c ee3a
00000090: 49b7 733d a400 e8bc 5cbb 2b3c 36aa c23a
000000a0: 817c 53bc 4092 d83c dcb7 77b9 476f 11bc
000000b0: 8037 31bd fdbd c33c 2b69 5c3d 5a48 05bd
000000c0: 39da a7bc 45c6 033d 6910 23bc 93e7 f7ba
000000d0: 9286 073c 9554 6b38 74d7 fcbb bdd4 0dbb
000000e0: 480c 93ba 8227 23bd 75eb 213d 2945 91bc
000000f0: 7d40 6e3d 59cf 543d d48f afbc 8f2b da3c
00000100: be7e 85bc 01bf 9d3b f9c9 213d 2a2f 2f3e
00000110: 2967 dd3b 3bbc f2bc afa8 623d 3109 12bb
00000120: 00b9 f7bb 5922 b8bc 875a 963b 1343 6b3c
00000130: 070a 1a3d de91 023c da53 77bc eb55 dd3c
00000140: 01b9 1d3e 02d5 f2bc 52d6 813c 1ff0 d2bc
00000150: 6165 123d f623 4f3b d495 65bd 2cd8 29bd
00000160: dfef 2e3c 80f5 62bd cc90 813b e59b 18bd
00000170: 279f 02bc 5282 ca3c bd6d 523d 83cc 4d3d
00000180: d931 1d3e ff66 88bb 6677 9f3c fbe8 19be
00000190: a666 1d3d 2579 cabb 6918 d23d e27b 86bc
000001a0: 5efb a53c 80a4 d53c 1ecc 473d 2dd9 f73d
000001b0: e1aa 653d a1e3 193d 81bd 003e 2278 443d
000001c0: 5218 3c3d 71a6 26bb 7435 783c 536b 6c3c
000001d0: 5b16 353d 8dd7 92bc e52c 6f3d d622 d9bc
000001e0: 4b13 65b8 77a8 af38 325f 3d38 aae0 40b7
000001f0: 23b5 a937 2ce0 29b8 c0de 2c38 3c3f 5a37

weight f4 [16]
0.09159692 0.16954798 0.17326209 0.0016397482 0.085947834 0.04685556 0.023362864 0.056012496
0.15808348 0.036464125 0.16114756 0.060296424 0.20876536 0.1749389 0.056798566 6.064081e-05
00000000: 2a97 bb3d fc9d 2d3e 9e6b 313e d2ec d63a
00000010: 6b05 b03d 9eeb 3f3d 7a63 bf3c 5c6d 653d
00000020: a3e0 213e 685b 153d de03 253e 62f9 763d
00000030: 96c6 553e 2f23 333e 9da5 683d 9358 7e38

bias f4 [16]
-0.043050107 0.008561916 -0.023128884 0.032158863 -0.00914001 -0.015529317 -0.0052638245 -0.03853911
-0.06177162 -0.04853942 -0.021634879 0.029917207 0.02366229 -0.035956398 0.009447151 -0.048089817
00000000: 4f55 30bd 4747 0c3c c978 bdbc 03b9 033d
00000010: fbbf 15bc ad6e 7ebc 297c acbb 30db 1dbd
00000020: 3d04 7dbd 45d1 46bd a13b b1bc ee14 f53c
00000030: 6bd7 c13c 0447 13bd 39c8 1a3c d4f9 44bd

running_mean f4 [16]
0.04675213 -0.07895458 -0.00428543 -0.000114147835 0.029455276 0.01185674 0.001220006 0.016055925
0.033478145 0.0014688522 0.008401188 0.003236811 0.035949 0.08033155 0.024246326 2.8707034e-05
00000000: 297f 3f3d f0b2 a1bd cb6c 8cbb a762 efb8
00000010: 314c f13c c642 423c 9ce8 9f3a b787 833c
00000020: 6120 093d 8086 c03a 23a5 093c ad20 543b
00000030: 423f 133d de84 a43d 3ba0 c63c e3cf f037

running_var f4 [16]
0.0006512004 0.0010982064 0.00069024734 2.3771105e-07 0.00037968604 0.00029444284 4.805168e-05 0.000363185
0.0012242908 6.968323e-05 0.0012473608 0.00031597415 0.0022503408 0.0014504566 0.00018094343 4.739029e-10
00000000: 52b5 2a3a b1f1 8f3a b7f1 343a 843d 7f34
00000010: 9910 c739 735f 9a39 198b 4938 de69 be39
00000020: 6278 a03a e622 9238 7c7e a33a 55a9 a539
00000030: 747a 133b 3f1d be3a a2bb 3d39 f443 0230

weight f4 [8, 1, 3, 3]
0.0919505 0.12812072 0.13100749 -0.04429929 -0.08115618 -0.045253675 -0.034001607 -0.0712181
-0.1250241 0.05087937 -0.09395895 0.0040826155 0.011454075 -0.16478127 0.2739512 -0.17310545
-0.04827155 0.09806399 -0.064286694 -0.18069732 -0.08877515 0.14238182 0.29882374 -0.033049304
0.00436387 -0.007416545 0.15097499 -0.0011053423 0.03637457 0.101124175 -0.0361524 -0.0036237058
0.055220857 -0.028964033 -0.06571999 -0.08052043 0.07391168 0.05722602 -0.021619983 0.20232305
-0.013599672 -0.20173728 0.06458297 0.015042703 -0.08455672 -0.022728367 0.13569237 0.027574914
0.21657991 0.102639385 -0.027810866 -0.10643247 -0.23798177 -0.01636597 -0.09064725 0.27657858
-0.13731454 -0.1198682 0.060557984 -0.028184334 -0.005553694 0.011672394 0.05239444 0.11851106
0.13843659 0.06905873 -0.0033442879 0.12556675 0.1043389 -0.1227817 -0.00016914247 0.08370817
00000000: 8b50 bc3d 1432 033e d426 063e 2c73 35bd
00000010: 3635 a6bd eb5b 39bd 4545 0bbd ccda 91bd
00000020: 5106 00be e366 503d 8d6d c0bd 76c7 853b
00000030: dfa9 3b3c 6cbc 28be 5543 8c3e 8e42 31be
00000040: 64b8 45bd c6d5 c83d bea8 83bd b808 39be
00000050: bfcf b5bd 8acc 113e 6dff 983e b55e 07bd
00000060: cbfe 8e3b 7d06 f3bb 3099 1a3e 22e1 90ba
00000070: 80fd 143d 311a cf3d 8a14 14bd b27b 6dbb
00000080: 442f 623d fb45 edbc 3498 86bd e5e7 a4bd
00000090: 025f 973d d565 6a3d 641c b1bc c62d 4f3e
000000a0: 29d1 5ebc 3894 4ebe 1444 843d ab75 763c
000000b0: 132c adbd d730 babc f1f2 0a3e c9e4 e13c
000000c0: 20c7 5d3e 9934 d23d 9dd3 e3bc 44f9 d9bd
000000d0: 7eb1 73be ed11 86bc 44a5 b9bd b59b 8d3e
000000e0: 2f9c 0cbe 757d f5bd a60b 783d d5e2 e6bc
000000f0: c3fb b5bb 923d 3f3c 8d9b 563d edb5 f23d
00000100: 52c2 0d3e aa6e 8d3d d72b 5bbb 9294 003e
00000110: a2af d53d f974 fbbd d65b 31b9 306f ab3d

weight f4 [16, 8, 1, 1]
0.0182248 0.2336034 0.054619808 -0.040053423 0.07841893 0.06176181 -0.0032898088 -0.034983322
0.15984099 -0.008377578 0.08654563 -0.06502693 0.029573869 0.2116731 0.003718502 -0.0679102
-3.358927e-08 -3.6072188e-07 -6.1746937e-07 -1.3463561e-07 -2.5585143e-07 5.433385e-07 1.1599643e-06 -6.750523e-07
0.05173859 0.16377784 0.06757938 -0.0068881395 -0.018673655 -0.014259417 -0.24323468 -0.062059347
-0.041451104 -0.056174725 -0.1128259 0.0047224904 -0.006043351 -0.22779854 0.021680644 0.015842555
7.055348e-06 1.1756128e-05 7.872405e-06 -7.589356e-07 -2.341654e-06 1.3875927e-05 -2.4417184e-06 -9.373877e-06
0.01174368 -0.1748237 -0.016490553 0.045347642 -0.23875058 -0.020614106 0.023512553 -0.12548439
0.0400092 -0.030037181 -0.09882513 -0.06003723 -0.09956791 -0.11415549 -0.029224094 -0.20260848
5.6967673e-07 3.897846e-06 1.5336817e-06 3.1233094e-06 4.5269235e-06 -4.9060185e-07 1.3697388e-07 -1.3510535e-06
0.01601326 -0.050064262 0.12544055 -0.023555703 0.12505686 0.004590285 0.20226803 -0.047998365
0.009120884 0.17779519 -0.015532831 -0.07674984 0.059750143 0.11527982 -0.05620465 -0.014428696
-0.042327 -0.009942751 0.1799435 -0.04653638 0.03122912 0.01572688 -0.0154181365 -0.080207765
-0.06693467 0.029189633 -0.18011168 0.04621903 0.016103016 -0.15024738 -0.036836363 -0.015888058
-0.14748505 0.00804438 0.2038622 0.10714555 0.0066575115 -0.092724964 0.01816651 -0.051578525
-1.9514412e-07 -3.477564e-07 1.11748136e-07 -2.3353813e-07 -1.278884e-08 -1.2219658e-07 2.590185e-07 2.9244038e-07
0.107722305 0.04731307 -0.1743293 0.0047504273 0.040178876 -0.053754553 0.045217518 -0.15340202
00000000: 2d4c 953c bb35 6f3e 05b9 5f3d 0f0f 24bd
00000010: 1b9a a03d f4f9 7c3d d599 57bb ac4a 0fbd
00000020: 5bad 233e 1c42 09bc d63e b13d d72c 85bd
00000030: e644 f23c d5c0 583e 1cb2 733b 8114 8bbd
00000040: cb43 10b3 3da9 c1b4 2cc0 25b5 5b90 10b4
00000050: f45b 89b4 f0d9 1135 12b0 9b35 3e35 35b5
00000060: d8eb 533d 61b5 273e 0f67 8a3d e7b5 e1bb
00000070: 7ef9 98bc 54a0 69bc 8312 79be f131 7ebd
00000080: a2c8 29bd 7817 66bd 4411 e7bd 1fbf 9a3b
00000090: 4d07 c6bb 0544 69be 9b9b b13c 3fc8 813c
000000a0: fabc ec36 2f3c 4537 b913 0437 a8b9 4bb5
000000b0: 4f25 1db6 a7cc 6837 67dc 23b6 7f44 1db7
000000c0: 9068 403c fc04 33be 3217 87bc 73be 393d
000000d0: 087b 74be eade a8bc 669d c03c fb7e 00be
000000e0: b0e0 233d 8910 f6bc d464 cabd 99e9 75bd
000000f0: 43ea cbbd 5bca e9bd 5e67 efbc 9978 4fbe
00000100: e3eb 1835 3eca 8236 e7d8 cd35 0c9a 5136
00000110: fae5 9736 e7b1 03b5 1813 1334 d855 b5b5
00000120: 3e2e 833c 2f10 4dbd 7d73 003e e4f7 c0bc
00000130: e80e 003e 1a6a 963b 5a1f 4f3e ef99 44bd
00000140: c36f 153c f10f 363e 6a7d 7ebc 052f 9dbd
00000150: 91bc 743d d417 ec3d d936 66bd 5666 6cbc
00000160: 145f 2dbd ece6 22bc 1c43 383e ee9c 3ebd
00000170: 36d4 ff3c a8d5 803c 5a9c 7cbc f843 a4bd
00000180: 0b15 89bd 191f ef3c 326f 38be 2a50 3d3d
00000190: 79ea 833c 73da 19be bae1 16bd ac27 82bc
000001a0: 5206 17be 93cc 033c 41c1 503e 206f db3d
000001b0: 4127 da3b 96e6 bdbd efd1 943c 0144 53bd
000001c0: cf88 51b4 47b3 bab4 30fa ef33 79c2 7ab4
000001d0: eab5 5bb2 2435 03b4 3b0f 8b34 b300 9d34
000001e0: 839d dc3d 5acb 413d 6183 32be 79a9 9b3b
000001f0: 9b92 243d bc2d 5cbd 0136 393d 6b15 1dbe

weight f4 [16]
0.28293326 0.3029698 1.6834389e-06 0.31406242 0.27393672 2.3789687e-05 0.3149653 0.29526064
7.029746e-06 0.2759185 0.2672212 0.22503635 0.26897833 0.293377 7.6860715e-07 0.28310925
00000000: a1dc 903e dc1e 9b3e 85f2 e135 cacc a03e
00000010: 6f41 8c3e f78f c737 2243 a13e 672c 973e
00000020: 0fe1 eb36 3145 8d3e 38d1 883e ee6f 663e
00000030: 87b7 893e 8335 963e 4852 4e35 b2f3 903e

bias f4 [16]
0.008696124 -0.006581903 3.338225e-07 0.17170744 -0.0053100297 -1.9887345e-10 -0.041857705 0.050350178
3.8119404e-06 0.19989687 0.16013637 0.07108698 0.18207005 -0.014753065 -5.335242e-09 0.0012550479
00000000: 307a 0e3c 01ad d7bb 3738 b334 13d4 2f3e
00000010: c2ff adbb e6a9 5aaf fc72 2bbd fd3b 4e3d
00000020: a3d0 7f36 c4b1 4c3e cafa 233e 0d96 913d
00000030: 9270 3a3e d7b6 71bc 4951 b7b1 6b80 a43a

running_mean f4 [16]
0.0017893127 0.0064491034 -4.7128783e-08 -0.0014746217 -0.009716977 2.1821806e-07 -0.006550219 -0.016273674
5.015978e-08 0.010047678 -0.0011298531 0.010528352 -0.014973636 0.011369014 2.237963e-08 -0.018191043
00000000: 5f87 ea3a 0053 d33b a56a 4ab3 1848 c1ba
00000010: f533 1fbc 534f 6a34 38a3 d6bb 5e50 85bc
00000020: 436f 5733 049f 243c 9417 94ba 1c7f 2c3c
00000030: fb53 75bc 1a45 3a3c 543d c032 6205 95bc

running_var f4 [16]
0.00045103085 0.00052806805 9.586324e-15 0.0003126479 0.00061460474 3.5717017e-12 0.00055185467 0.00041397626
1.8452153e-13 0.00027415212 0.00040835727 0.0002611123 0.0004581957 0.00043501536 1.3201651e-15 0.00035662824
00000000: 5678 ec39 0c6e 0a3a 1eb1 2c28 e4ea a339
00000010: 6d1d 213a 0f56 7b2c 57aa 103a f40a d939
00000020: b6c0 4f2a 13bc 8f39 c918 d639 e6e5 8839
00000030: fc39 f039 c612 e439 7f41 be26 d5f9 ba39

weight f4 [16, 1, 3, 3]
0.07917331 0.058157235 0.027326735 0.077294216 0.18070047 0.082100525 0.011810183 0.10512249
0.112569496 -0.07380064 -0.050256666 -0.055447273 -0.107553646 -0.13887388 -0.11650672 -0.066365816
-0.12905842 -0.107382454 -4.484066e-07 7.403868e-08 -9.751082e-08 -9.721263e-07 -2.2544523e-07 -2.4425011e-08
-5.48062e-07 -1.0538276e-06 -3.8790728e-07 0.043961853 0.038204346 0.066219725 -0.10311007 0.15234844
-0.15936135 -0.11444799 0.19725409 -0.14727347 -0.052070983 -0.08620461 -0.02822419 -0.13696101
-0.09014173 -0.095488064 -0.1451386 -0.083563805 -0.049378887 8.537461e-07 -2.485565e-06 -6.7690025e-06
-5.364298e-07 -8.1285025e-06 -1.7077522e-05 -9.406297e-06 -4.216441e-06 -6.285569e-06 0.037914366 0.068034686
0.039481327 0.13555765 0.16142242 0.1612334 0.03599779 0.095901854 0.11483889 -0.11843636
-0.056791943 0.014368886 -0.06015955 -0.15714724 -0.12590249 0.04670241 -0.03024446 -0.1769657
3.2904616e-06 -5.6002546e-07 -2.1515975e-06 2.848317e-06 1.8354566e-06 -7.236942e-07 4.5363367e-06 3.9724805e-06
1.1820557e-06 0.019023519 -0.12778592 0.054686356 0.19821663 -0.14118084 -0.1134277 0.02901677
0.16945699 -0.0971258 -0.091382205 0.14591186 0.041768968 0.1857878 0.055160034 -0.15931313
0.033120908 -0.10257832 0.080817305 0.037718676 0.053181842 0.06743115 -0.012004515 0.04786546
0.047658432 -0.114332885 -0.13310844 -0.11653268 -0.022529421 -0.1195315 -0.13840984 0.052185487
0.20576453 0.1648743 0.016558107 -0.0927284 -0.060149744 0.09235713 0.06935779 0.03203484
0.09272482 0.13931094 0.15329078 0.058455076 0.036337614 0.11104701 3.5381024e-07 8.550491e-08
3.7471963e-07 6.1717515e-08 1.34982e-07 4.6090705e-08 4.725636e-08 -9.630963e-08 -9.144161e-08 -0.034581624
-0.02187693 -0.06606223 -0.10653792 -0.079929486 -0.061876338 -0.1273771 -0.15083808 -0.106993295
00000000: 9e25 a23d 4836 6e3d 51dc df3c 6e4c 9e3d
00000010: 8b09 393e 5224 a83d 7f7f 413c 764a d73d
00000020: d68a e63d ca24 97bd efd9 4dbd ae1c 63bd
00000030: 1645 dcbd f434 0ebe 139b eebd cdea 87bd
00000040: e427 04be 55eb dbbd 89bc f0b4 32ff 9e33
00000050: 2467 d1b3 017a 82b5 ea11 72b4 2bcf d1b2
00000060: 891e 13b5 3e71 8db5 9241 d0b4 5811 343d
00000070: 297c 1c3d 359e 873d 5f2b d3bd 3b01 1c3e
00000080: 9f2f 23be b563 eabd fafc 493e dbce 16be
00000090: 6248 55bd 0b8c b0bd 6b36 e7bc 823f 0cbe
000000a0: 3a9c b8bd 3f8f c3bd 379f 14be 8023 abbd
000000b0: 8441 4abd fc2c 6535 aecd 26b6 4a21 e3b6
000000c0: 2dff 0fb5 a75f 08b7 b341 8fb7 bdcf 1db7
000000d0: f47a 8db6 a0e8 d2b6 184c 1b3d c555 8b3d
000000e0: 2cb7 213d a0cf 0a3e eb4b 253e 5e1a 253e
000000f0: 6b72 133d 3168 c43d a730 eb3d c38e f2bd
00000100: ab9e 68bd 7a6b 6b3c dc69 76bd 35eb 20be
00000110: 95ec 00be 074b 3f3d 3bc3 f7bc 7f36 35be
00000120: b3d1 5c36 a854 16b5 2a64 10b6 b725 3f36
00000130: cf59 f635 e343 42b5 d636 9836 594b 8536
00000140: 20a7 9e35 36d7 9b3c 50da 02be cdfe 5f3d
00000150: 4df9 4a3e b691 10be c84c e8bd 94b4 ed3c
00000160: 2286 2d3e e4e9 c6bd 9826 bbbd eb69 153e
00000170: f015 2b3d 283f 3e3e 7def 613d fb22 23be
00000180: caa9 073d 9514 d2bd 8b83 a53d e67e 1a3d
00000190: 34d5 593d 5819 8a3d 96ae 44bc 930e 443d
000001a0: 7d35 433d 5c27 eabd 944d 08be b0a8 eebd
000001b0: 9f8f b8bc eecc f4bd 4fbb 0dbe 73c0 553d
000001c0: f0b3 523e cfd4 283e dea4 873c 63e8 bdbd
000001d0: 945f 76bd bc25 bd3d 750b 8e3d f736 033d
000001e0: 83e6 bd3d 87a7 0e3e 42f8 1c3e 976e 6f3d
000001f0: c0d6 143d 9d6c e33d 4ff3 bd34 d29e b733
00000200: 132d c934 9089 8433 92ef 1034 44f5 4533
00000210: ebf6 4a33 c7d2 ceb3 8f5e c4b3 76a5 0dbd
00000220: 3f37 b3bc a24b 87bd 8e30 dabd 12b2 a3bd
00000230: 0b72 7dbd 246f 02be 4c75 1abe 4d1f dbbd

weight f4 [16, 16, 1, 1]
-0.043024115 0.019395432 1.7530908e-07 0.0091448445 0.01831042 9.2771273e-07 0.024055151 0.03205928
-8.3070904e-07 -0.010740309 0.029607829 0.087734684 -0.27100736 0.03578656 -4.9443724e-08 -0.08604611
-0.10924897 -0.0540772 3.3142018e-07 0.020480048 0.022621889 1.057138e-06 -0.053111397 -0.11363924
6.885989e-07 0.059510313 -0.0188203 -0.20115972 0.05659237 0.049418934 -2.1275234e-07 -0.035702188
-0.00018037065 -0.00015616456 3.803773e-07 8.064717e-05 -0.00055291835 2.7963522e-06 -2.6362633e-05 2.1585764e-05
5.186249e-07 0.00013366602 0.0002527315 0.000633585 -0.0009820866 0.00056198327 -6.192396e-08 0.00070654915
-0.044209197 -0.032628585 -7.995641e-08 0.00017506204 -0.037055872 2.2816867e-07 -0.067396976 0.019490546
-4.864764e-07 -0.012564858 0.035663243 -0.0515889 0.26667392 -0.008588939 -6.962563e-08 -0.003913117
-0.061673194 0.060711887 3.6566016e-07 0.040464588 0.06489443 7.615229e-06 0.011038593 0.1237633
1.2772628e-06 -0.20195085 -0.011968448 0.030452585 -0.047402587 0.100982666 -2.8579035e-09 -0.16116814
-0.0048561827 -0.019957531 -9.558279e-07 -0.3132172 -0.005610521 -9.589272e-06 0.010309408 0.008927168
-1.2426003e-07 0.033695135 0.07686647 0.00568782 -0.007045073 0.034756336 -1.7235878e-07 -0.0020235975
0.10497733 0.0098773455 -4.3929515e-07 0.00064477744 0.0052510854 8.078863e-06 0.32754046 -0.02804893
-3.0226367e-06 0.02106481 0.006053835 0.043742266 -0.0014455667 -0.09556623 2.5649191e-08 0.044842847
0.041298486 0.2374946 2.0426323e-07 -0.02936829 0.14989759 5.329836e-06 0.070802554 0.08105093
4.891496e-06 -0.08119268 -0.029145034 -0.006006595 -0.0071744546 -0.110106975 -1.4460937e-07 0.06439907
-0.04957932 -0.059962913 -4.072979e-07 -0.016665047 -0.08621564 3.8556327e-06 -0.03774577 -0.21531232
-3.2698786e-06 -0.04735456 0.01175982 -0.07932831 -0.016460357 0.061677493 -1.2578998e-07 -0.15306774
0.11689297 0.048407283 -1.2426328e-07 0.2263176 -0.028762655 5.2321207e-06 0.099660814 0.032682214
-1.927919e-06 0.00037576273 0.05633024 0.067551166 0.039286014 -0.048078217 -9.6029716e-08 0.035576854
0.13477845 -0.18867528 -5.254e-07 0.040107157 0.028961334 -9.2566725e-06 0.027909867 0.050551336
-1.040972e-06 0.005442587 -0.029419146 0.050876748 -0.005012676 0.022919377 2.053393e-08 -0.06918204
0.04786317 -0.02860574 -3.318026e-07 -0.012030958 -0.17080612 -1.2723491e-05 -0.0077234968 0.007451777
1.4733974e-06 -0.000234595 -0.29761517 0.0148129985 -0.017503379 -0.09704392 -2.3827342e-07 0.13530017
0.02779456 0.03043221 2.8942358e-07 -0.026449408 0.02361696 -1.307453e-06 -0.0074612196 0.055696055
2.8236027e-06 0.0553702 0.10650954 0.0019855583 0.014649656 0.00952747 1.7903861e-07 0.030379677
0.13998574 0.008548211 1.7216651e-07 -0.034527928 -0.028383624 4.778488e-06 0.03415889 -0.014387157
1.3214733e-06 -0.15664816 0.027226837 0.021750757 -0.024458451 0.11523569 1.2458355e-07 0.05691268
-0.046319526 0.11011925 1.2920276e-07 0.0076572043 0.06924036 2.272162e-06 -0.028657086 0.11797718
2.527062e-06 0.04920948 0.0078016184 0.052425586 -0.0067597213 0.22943304 -2.3057916e-07 0.063522615
-0.08373121 0.060784347 -9.0106045e-07 -0.07453144 0.17413777 4.176991e-06 0.056876644 -0.11199322
-5.6549516e-07 0.24593878 -0.014174074 -0.02320108 0.008892029 0.040660713 -9.825953e-08 0.009499954
00000000: 0e3a 30bd 2be3 9e3c 983c 3c34 42d4 153c
00000010: bcff 953c ef07 7935 4f0f c53c 9750 033d
00000020: e4fd 5eb5 1ff8 2fbc 1e8c f23c 3eae b33d
00000030: 7ac1 8abe ee94 123d f35b 54b3 f138 b0bd
00000040: edbd dfbd 0e80 5dbd 0bee b134 c6c5 a73c
00000050: 8a51 b93c fce2 8d35 568b 59bd b1bb e8bd
00000060: 28d8 3835 16c1 733d 082d 9abc d0fc 4dbe
00000070: 67cd 673d 826b 4a3d eb70 64b4 753c 12bd
00000080: e121 3db9 1bc0 23b9 a836 cc34 1f21 a938
00000090: b9f1 10ba f7a8 3b36 5325 ddb7 1313 b537
000000a0: a237 0b35 b328 0c39 0c81 8439 2b17 263a
000000b0: 5cb9 80ba 0f52 133a 0ffb 84b3 b637 393a
000000c0: b414 35bd 8da5 05bd 80b4 abb3 dc90 3739
000000d0: e6c7 17bd 87fe 7434 6d07 8abd a3aa 9f3c
000000e0: 6796 02b5 d6dc 4dbc 9f13 123d e24e 53bd
000000f0: 7c89 883e 9fb8 0cbc 1885 95b3 9b39 80bb
00000100: 089d 7cbd 07ad 783d f34f c434 32be 253d
00000110: 5fe7 843d 5286 ff36 37db 343c 9d77 fd3d
00000120: 6a6e ab35 34cc 4ebe 4f17 44bc b377 f93c
00000130: 3729 42bd 00d0 ce3d c564 44b1 4309 25be
00000140: 9d20 9fbb fa7d a3bc ff49 80b5 015e a0be
00000150: 76d8 b7bb 9ce1 20b7 cbe8 283c 4243 123c
00000160: 566c 05b4 e903 0a3d 2b6c 9d3d e460 ba3b
00000170: 5bda e6bb a95c 0e3d 9f11 39b4 559e 04bb
00000180: 5bfe d63d 97d4 213c 44d8 ebb4 4806 293a
00000190: 4c11 ac3b 748a 0737 62b3 a73e dfc6 e5bc
000001a0: 81d8 4ab6 1c90 ac3c 405f c63b 172b 333d
000001b0: 2b79 bdba 3ab8 c3bd 2b53 dc32 22ad 373d
000001c0: 9a28 293d c931 733e 7353 5b34 c595 f0bc
000001d0: c17e 193e f1d6 b236 ee00 913d 08fe a53d
000001e0: a121 a436 5948 a6bd 91c1 eebc f9d2 c4bb
000001f0: b017 ebbb c47f e1bd ec45 1bb4 a9e3 833d
00000200: af13 4bbd ac9b 75bd 99aa dab4 2385 88bc
00000210: d391 b0bd a25f 8136 4f9b 1abd d57a 5cbe
00000220: 1670 5bb6 dbf6 41bd 43ac 403c e276 a2bd
00000230: dfd7 86bc 8aa1 7c3d e310 07b4 cabd 1cbe
00000240: 9565 ef3d b746 463d 3b6d 05b4 cdbf 673e
00000250: a99f ebbc 938f af36 f81a cc3d c9dd 053d
00000260: 6561 01b6 0502 c539 8aba 663d 4458 8a3d
00000270: 5fea 203d aaed 44bd e538 ceb3 09b9 113d
00000280: 5d03 0a3e 1834 41be 3709 0db5 6747 243d
00000290: 5240 ed3c 1b4d 1bb7 3ca3 e43c eb0e 4f3d
000002a0: 87b7 8bb5 bb57 b23b 6c00 f1bc 2364 503d
000002b0: 6041 a4bb 6bc1 bb3c 9762 b032 50af 8dbd
000002c0: 2c0c 443d 9656 eabc 9a22 b2b4 7f1d 45bc
000002d0: cde7 2ebe fa76 55b7 6315 fdbb 092e f43b
000002e0: 8dc1 c535 9efd 75b9 0461 98be 38b2 723c
000002f0: 3f63 8fbc f6be c6bd 19d8 7fb4 218c 0a3e
00000300: 6bb1 e33c f84c f93c 1362 9b34 6eac d8bc
00000310: 5b78 c13c be7b afb5 3f7d f4bb 8c21 643d
00000320: 207d 3d36 ddcb 623d ac21 da3d 2420 023b
00000330: 1c05 703c 1b19 1c3c c23d 4034 cdde f83c
00000340: 6c58 0f3e cc0d 0c3c c5dc 3834 286d 0dbd
00000350: c684 e8bc e656 a036 31ea 0b3d 1cb8 6bbc
00000360: 7a5d b135 6068 20be d10a df3c a52e b23c
00000370: 175d c8bc b000 ec3d 44c5 0534 451d 693d
00000380: 8bb9 3dbd 3486 e13d fcba 0a34 49e9 fa3b
00000390: e4cd 8d3d 727b 1836 44c2 eabc 059e f13d
000003a0: 9896 2936 e18f 493d b8a4 ff3b 36bc 563d
000003b0: a780 ddbb 7ff0 6a3e 1e95 77b4 2518 823d
000003c0: 457b abbd 02f9 783d 67e0 71b5 f1a3 98bd
000003d0: 2c51 323e 1428 8c36 7cf7 683d b45c e5bd
000003e0: 88cc 17b5 60d7 7b3e 603a 68bc 3110 bebc
000003f0: dfaf 113c d98b 263d bf02 d3b3 b2a5 1b3c

weight f4 [16]
0.2871784 0.26658756 0.0015274181 0.2743499 0.3284362 0.30182266 0.3483014 0.32244104
0.28188968 0.28931928 0.24738738 0.34773475 0.11891474 0.23904653 0.29696253 0.30603343
00000000: 0c09 933e 2a7e 883e a633 c83a 9777 8c3e
00000010: ca28 a83e 8088 9a3e 9054 b23e fe16 a53e
00000020: d853 903e a821 943e 1e53 7d3e 4a0a b23e
00000030: 9289 f33d 9dc8 743e 790b 983e 6ab0 9c3e

bias f4 [16]
-0.043049984 0.008561917 -0.023128865 0.03215879 -0.0091400165 -0.015529313 -0.005263887 -0.038539164
-0.061771702 -0.04853935 -0.021634823 0.029917222 0.023662398 -0.03595635 0.009447156 -0.048089758
00000000: 2e55 30bd 4847 0c3c bf78 bdbc efb8 033d
00000010: 02c0 15bc a96e 7ebc af7c acbb 3edb 1dbd
00000020: 5304 7dbd 33d1 46bd 833b b1bc f614 f53c
00000030: a5d7 c13c f746 13bd 3fc8 1a3c c4f9 44bd

running_mean f4 [16]
-0.00032861915 0.005792997 1.1481107e-05 -0.0003470222 -0.0051749474 0.00569069 0.011900254 -0.023973962
0.02451531 0.0027915114 0.013048718 -0.009016881 -0.0021418596 0.011909886 -0.012207124 -0.0041127307
00000000: 844a acb9 2ed3 bd3b fb9e 4037 88f0 b5b9
00000010: 9b92 a9bb f878 ba3b 48f9 423c 0b65 c4bc
00000020: 55d4 c83c caf1 363b 4aca 553c 8abb 13bc
00000030: 715e 0cbb af21 433c 6400 48bc 16c4 86bb

running_var f4 [16]
0.0002688307 0.0001494229 4.9007522e-09 0.00024535006 0.00023417205 0.00030773136 0.0003061621 0.00033888302
0.00022917886 0.00023132283 0.00019493562 0.00020829808 4.3589658e-05 0.00015571348 0.00021005596 0.00034568596
00000000: d9f1 8c39 68ae 1c39 7963 a831 54a2 8039
00000010: 158c 7539 0157 a139 6284 a039 1cac b139
00000020: bb4f 7039 408f 7239 a267 4c39 976a 5a39
00000030: 0ad4 3638 0547 2339 7842 5c39 2f3d b539

weight f4 [32, 16, 1, 1]
-0.046822596 -0.042399857 -0.016641863 -0.022119736 0.0028035329 0.03306811 -0.032735117 -0.010249814
-0.0032124193 0.019401312 -0.0026938822 -0.01037364 -0.0073790955 -0.024501227 -0.0052910578 0.01343143
-0.032948025 -0.033417456 0.010527937 -0.029132448 0.000117446674 0.010581203 -0.049894884 -0.03646234
0.032516 -0.022538036 0.035217293 -0.00031627726 0.02076076 -0.027864872 0.0538287 0.032122556
-0.0009977709 0.0025152 0.038610768 0.035907 0.021343965 -0.0407113 -0.00415091 -0.039832648
0.031382434 -0.05464342 0.0055433707 -0.022627901 0.01266101 -0.023520732 0.03162308 -0.00450668
0.031705625 0.021503689 0.021699538 -0.0029253962 0.006816038 -0.019384075 0.12982439 0.033273682
-0.03911262 0.0010585313 -0.013398867 0.013708729 -0.009325809 -0.028304726 -0.0070100822 0.02083659
-0.01840825 -0.02144206 0.00996695 0.01801782 -0.03125931 -0.0064807567 0.0781692 0.043715924
-0.08028642 0.007717969 -0.020333514 0.041318916 0.011670946 -0.008117266 -0.04028953 -0.012374121
0.019361729 0.0034562706 -0.046727937 0.04429969 -0.014665322 -0.0069023613 0.010834124 -0.012781302
-0.031684835 -0.022337183 0.0154223 0.021236744 0.035841696 0.038693935 -0.009369951 0.026849248
0.0010080299 0.0031232007 -0.0016247518 -0.0019490093 -0.0008038004 -0.0014183654 -0.005201252 -0.0012514443
0.0072383042 0.00045576788 0.004805647 0.00471466 0.0063268156 -0.004824972 -0.002876985 -0.0014115456
-0.03554685 -0.038648285 0.0072801183 0.0060616485 -0.02216416 0.010773963 0.0783946 0.002782321
0.015111466 -0.024932692 0.018873854 0.024266552 0.019224504 0.0071432474 0.034930225 -0.0015770755
0.025284968 0.02097651 -0.0012187636 0.04938542 -0.017352182 0.03336071 0.09628636 0.01427728
0.05619488 0.06220146 -0.025856994 -0.012985958 0.06393797 0.0059861247 0.022083888 0.0048803035
-0.033097737 0.045456 -0.036875032 -0.05720903 0.016739538 -0.012398757 0.01097039 -0.029629046
0.028777413 -0.008352235 -0.0057151415 0.0113484105 0.0008456606 -0.023027273 0.041831926 -0.014399994
-0.014357405 -0.018212622 0.018054018 0.01158741 0.021712802 0.0080952095 0.052689087 0.057256095
0.0019297354 0.022415353 -0.028457582 0.007982177 0.020261433 0.048552565 0.061213885 -0.00021051518
0.052557807 0.045329675 0.018880969 0.028720671 -0.001388174 0.023287442 0.03655917 -0.0536859
0.025150139 0.01720314 0.034322567 0.045778066 -0.0102983415 -0.0044998983 -0.024562895 -0.027877605
0.0003302355 0.0015776723 0.02557489 0.0037722234 0.034723755 0.014037831 -0.035419803 -0.04196411
-0.018800551 -0.0007771064 0.006685381 -0.0032750398 -0.007216369 0.0036412927 0.027497513 -0.0050341184
0.004658277 0.012325767 0.011589246 0.01689414 -0.00014618457 -0.01756941 -0.010072455 -0.004375579
-0.0024821723 -0.011684768 0.0047722114 -0.031564217 0.020266715 0.0039367205 -0.0006266412 0.0004407746
0.0212758 0.03637295 0.040934306 0.02908289 0.010140088 0.03878678 0.055446208 -0.015900189
0.05074053 0.022560833 0.03243121 0.049020592 -0.012580695 0.01711027 0.002902769 -0.0099447565
-0.035363674 -0.015898166 0.012779005 -0.028797243 -0.005930538 -0.010621178 -0.009480812 0.0026873157
0.014781028 0.013173106 0.0088802595 -0.0074794316 -0.012596853 0.013096003 0.006809243 -0.0018636391
00000000: 0dc9 3fbd 79ab 2dbd 8454 88bc 7334 b5bc
00000010: 7abb 373b 6d72 073d 4215 06bd d6ee 27bc
00000020: 7487 52bb 80ef 9e3c d88b 30bb 33f6 29bc
00000030: 57cc f1bb ccb6 c8bc 9c60 adbb 800f 5c3c
00000040: 82f4 06bd bee0 08bd 5e7d 2c3c 2ca7 eebc
00000050: b44d f638 c85c 2d3c 945e 4cbd 8959 15bd
00000060: 7f2f 053d b0a1 b8bc 0240 103d 04d2 a5b9
00000070: 7812 aa3c df44 e4bc 7c7b 5c3d f192 033d
00000080: a3c7 82ba 0ed6 243b 5326 1e3d 3813 133d
00000090: 8ad9 ae3c e4c0 26bd 5b04 88bb 8f27 23bd
000000a0: de8a 003d c7d1 5fbd 2aa5 b53b 265e b9bc
000000b0: 2070 4f3c 8dae c0bc 3487 013d c6ac 93bb
000000c0: c2dd 013d 8128 b03c 3bc3 b13c 01b8 3fbb
000000d0: 1259 df3b 5acb 9ebc aff0 043e fc49 083d
000000e0: 8e34 20bd 6bbe 8a3a ec86 5bbc 949a 603c
000000f0: 47cb 18bc 50df e7bc d5b4 e5bb 7fb1 aa3c
00000100: e6cc 96bc 42a7 afbc 6b4c 233c 1b9a 933c
00000110: c309 00bd 875c d4bb 2c17 a03d 780f 333d
00000120: 356d a4bd 04e7 fc3b 7892 a6bc 063e 293d
00000130: 7f37 3f3c 48fe 04bc a206 25bd d3bc 4abc
00000140: 7d9c 9e3c 9982 623b cb65 3fbd 9773 353d
00000150: d246 70bc 342d e2bb 9c81 313c ab68 51bc
00000160: f5c7 01bd 78fc b6bc d1ad 7c3c aef8 ad3c
00000170: bece 123d 887d 1e3d 6c84 19bc f4f2 db3c
00000180: df1f 843a 9dae 4c3b a0f5 d4ba e675 ffba
00000190: 22b6 52ba 72e8 b9ba 446f aabb 8107 a4ba
000001a0: 4c2f ed3b 21f4 ee39 b078 9d3b 6f7d 9a3b
000001b0: 2d51 cf3b cc1a 9ebb cc8b 3cbb 9c03 b9ba
000001c0: 9399 11bd aa4d 1ebd 0f8e ee3b cba0 c63b
000001d0: 9d91 b5bc 4785 303c 598d a03d 9a57 363b
000001e0: 1596 773c a53f ccbc 579d 9a3c a6ca c63c
000001f0: b57c 9d3c e711 ea3b ff12 0f3d dfb5 ceba
00000200: 6c22 cf3c eed6 ab3c ecbe 9fba 5e48 4a3d
00000210: 2a26 8ebc 3da5 083d c831 c53d 41eb 693c
00000220: 9a2c 663d f5c6 7e3d 0cd2 d3bc 0ec3 54bc
00000230: e9f1 823d 4127 c43b 45e9 b43c f4ea 9f3b
00000240: 7e91 07bd 1230 3a3d 460a 17bd 0454 6abd
00000250: 5b21 893c 2824 4bbc 27bd 333c 9db8 f2bc
00000260: 9cbe eb3c d0d7 08bc 1546 bbbb afee 393c
00000270: 52af 5d3a b1a3 bcbc f457 2b3d f4ed 6bbc
00000280: 523b 6bbc a332 95bc 05e6 933c 1fd9 3d3c
00000290: 0cdf b13c c5a1 043c 83d0 573d 5e85 6a3d
000002a0: 2def fc3a 67a0 b73c e01f e9bc adc7 023c
000002b0: 4efb a53c 0edf 463d 69bb 7a3d bdbd 5cb9
000002c0: db46 573d 9cab 393d 43ac 9a3c 9d47 eb3c
000002d0: 64f3 b5ba 4ec5 be3c 11bf 153d bfe5 5bbd
000002e0: aa07 ce3c 99ed 8c3c d295 0c3d c881 3b3d
000002f0: 60ba 28bc e273 93bb 2038 c9bc 935f e4bc
00000300: 7523 ad39 e6c9 ce3a 6f82 d13c 6837 773b
00000310: 7f3a 0e3d eefe 653c 5b14 11bd 8fe2 2bbd
00000320: 9d03 9abc bab6 4bba 0a11 db3b 0da2 56bb
00000330: 4a77 ecbb c1a2 6e3b 7742 e13c 3ff5 a4bb
00000340: 76a4 983b 04f2 493c d2e0 3d3c 9465 8a3c
00000350: 1f49 19b9 b9ed 8fbc f006 25bc 0461 8fbb
00000360: f1ab 22bb 7871 3fbc 3660 9c3b 7b49 01bd
00000370: 6206 a63c 9bff 803b 2e45 24ba c417 e739
00000380: 964a ae3c cdfb 143d bbaa 273d 3e3f ee3c
00000390: 9d22 263c e3de 1e3d 901b 633d 1d41 82bc
000003a0: 4dd5 4f3d 7fd1 b83c 97d6 043d d1c9 483d
000003b0: 421f 4ebc d62a 8c3c 623c 3e3b 55ef 22bc
000003c0: 80d9 10bd df3c 82bc 085f 513c 32e8 ebbc
000003d0: f554 c2bb 7304 2ebc 6855 1bbc ad1d 303b
000003e0: 202c 723c 03d4 573c 827e 113c 0516 f5bb
000003f0: 0863 4ebc 9e90 563c 1220 df3b 5a45 f4ba

weight f4 [32]
0.04276453 0.070608675 0.06165702 0.07990909 0.095255576 0.053634867 0.008344922 0.052798327
0.11609785 0.056615815 0.08892179 0.08319955 0.04342202 0.029405285 0.08040769 0.029824335
0.08580925 0.074772686 0.06153025 0.056390554 0.050769262 0.047601487 0.05525755 0.050611112
0.0643451 0.15187657 0.059908185 0.03938962 0.047415767 2.7225116e-05 0.08449894 0.07189463
00000000: dc29 2f3d 489b 903d 128c 7c3d 61a7 a33d
00000010: 5b15 c33d 3cb0 5b3d 24b9 083c 0f43 583d
00000020: b6c4 ed3d fce5 673d a11c b63d 8764 aa3d
00000030: 4adb 313d 5ae3 f03c c9ac a43d 2a52 f43c
00000040: c3bc af3d 6c22 993d 2507 7c3d c8f9 663d
00000050: 6ef3 4f3d c7f9 423d be55 623d 994d 4f3d
00000060: 5dc7 833d 8885 1b3e 4962 753d 0357 213d
00000070: 0937 423d 7e61 e437 c80d ad3d 7e3d 933d

bias f4 [32]
0.025302282 -0.016032854 0.007921239 -0.010294444 0.0065500424 -0.007603464 -0.025946716 -0.0013065652
0.0209769 -0.07876345 -0.01616615 -0.030631084 -0.0010840214 -0.026475482 -0.010468247 0.004847872
-0.037340853 0.0014956205 -0.025852777 -0.027074898 -0.080227375 -0.04183954 -0.054149423 -0.033749145
0.03473662 -0.05262924 -0.012409497 -0.028200833 -0.02316267 -4.725678e-08 -0.040244427 -0.046611752
00000000: bb46 cf3c 5557 83bc 16c8 013c 07aa 28bc
00000010: bda1 d63b 7b26 f9bb 358e d4bc 0e41 abba
00000020: bfd7 ab3c bb4e a1bd e06e 84bc 0aee fabc
00000030: b915 8eba 1ce3 d8bc 0383 2bbc e6da 9e3b
00000040: b9f2 18bd b208 c43a 34c9 d3bc 2dcc ddbc
00000050: 404e a4bd f05f 2bbd c9cb 5dbd 8b3c 0abd
00000060: fc47 0e3d c291 57bd 3451 4bbc 6f05 e7bc
00000070: a4bf bdbc 61f7 4ab3 57d7 24bd f7eb 3ebd

running_mean f4 [32]
-0.011475985 -0.006456741 -0.0018511708 0.017852653 0.008739758 0.019488964 7.6032935e-05 0.011654526
0.0307137 0.00047331135 0.02091318 0.024423089 0.005760927 -0.0047295606 0.032192852 -0.014275435
0.016825773 -0.010821601 0.0028206608 0.016083207 -0.016129764 -0.0066692852 0.0037883946 0.00053976936
-0.015128151 -0.035669897 -0.017002454 -0.005535051 0.0004209502 -1.3291649e-06 -0.035392143 -0.018394023
00000000: c505 3cbc 1293 d3bb fca2 f2ba ba3f 923c
00000010: 3431 0f3c 52a7 9f3c df73 9f38 a0f2 3e3c
00000020: 4c9b fb3c c626 f839 1e52 ab3c ee12 c83c
00000030: 29c6 bc3b 6efa 9abb a7dc 033d 84e3 69bc
00000040: 34d6 893c 164d 31bc d6da 383b eec0 833c
00000050: 9122 84bc 058a dabb b746 783b 4f7f 0d3a
00000060: 10dc 77bc 991a 12bd bb48 8bbc 605f b5bb
00000070: fbb2 dc39 c265 b2b5 5af7 10bd 10af 96bc

running_var f4 [32]
0.00017188254 0.00031430428 0.00044519387 0.0009085214 0.0010659335 0.00028998262 4.5053666e-06 0.0004238169
0.0013336097 0.000121860525 0.0007623348 0.0009395256 0.00020275396 0.00010501624 0.0013332175 6.249027e-05
0.0012178246 0.0004893887 0.000527357 0.0007822016 0.00022909511 6.3361105e-05 0.00030272646 0.00027696407
0.0005289269 0.0017556208 0.00036393836 0.00021276141 0.00014737008 4.6954315e-11 0.000641002 0.0007333361
00000000: 5e3b 3439 35c9 a439 e968 e939 d729 6e3a
00000010: cbb6 8b3a cf08 9839 ce2c 9736 be33 de39
00000020: 84cc ae3a 5f8f ff38 6cd7 473a 7f4a 763a
00000030: 5a9a 5439 2a3c dc38 5bbf ae3a 350d 8338
00000040: 6a9f 9f3a 524a 003a 543e 0a3a a90c 4d3a
00000050: 4039 7039 bce0 8438 42b7 9e39 7d35 9139
00000060: afa7 0a3a dc1c e63a fbce be39 b518 5f39
00000070: 5b87 1a39 dc81 4e2e eb08 283a 5a3d 403a

weight f4 [16, 1, 3, 3]
0.0010724164 -0.018260894 0.062228326 -0.14926371 -0.24551494 -0.0457106 -0.031056546 -0.08003286
0.08010151 0.048316766 0.04495167 0.072741725 -0.025070703 -0.101793654 -0.06385062 -0.020043472
-0.15239038 -0.22339702 0.0523873 0.05249617 0.027308004 0.069389574 0.07542027 0.07400512
0.05263198 0.03762885 0.017029174 0.037382808 -0.028735641 -0.021256981 -0.08416583 -0.15771906
-0.19771302 -0.038317878 -0.034480978 -0.042334866 -0.08426135 0.029012702 0.021011705 -0.1528226
-0.028235814 0.1391003 -0.17123568 -0.06755349 0.25022593 0.05410901 0.017808551 0.040510204
-0.06833437 -0.12726226 -0.12384646 -0.08335371 -0.1517197 -0.15002936 0.033496812 0.10631342
0.074553534 0.052323774 -0.053970177 0.025247252 -0.04737611 -0.2637614 -0.14097878 0.016681831
-0.04069473 -0.049559753 -0.09308017 -0.22343865 -0.2003115 0.0038449932 -0.0012375474 -0.037471686
-0.088001855 0.015168906 0.095365345 -0.1767453 0.023206059 0.18000622 -0.183746 -0.043629095
0.20396388 -0.015490097 -0.08932474 -0.05371539 -0.11011848 -0.18270652 -0.15429416 0.03409476
0.012308071 0.05683489 -0.080918655 -0.10978155 -0.018643856 -0.0055204933 0.05183199 -0.002150188
0.07048512 0.27857557 0.0750464 -0.007166309 0.015703784 0.079057306 -0.14846241 0.07855187
0.22844778 -0.1812174 0.093825035 0.153025 -0.095561974 -0.114386275 -0.12437308 -0.100365385
-0.15785363 -0.07728968 0.029775633 -0.07156307 -0.021469695 -0.05624114 -0.08295936 -0.11472312
-0.079417266 -0.043284185 -0.06377043 0.078148685 0.16030262 0.20593682 0.014784345 0.05882364
0.07023074 0.09149304 0.09828965 0.020511517 0.13460547 0.15432853 0.0937803 -0.050302558
-0.06708958 -0.026619159 -0.07796815 -0.16431801 -0.13604343 -0.058666255 -0.1858811 -0.11559759
00000000: 5390 8c3a df97 95bc 21e3 7e3d 96d8 18be
00000010: 4568 7bbe 0a3b 3bbd 4c6a febc 45e8 a3bd
00000020: 430c a43d cde7 453d 3e1f 383d 9df9 943d
00000030: 1361 cdbc 3179 d0bd 1dc4 82bd 3532 a4bc
00000040: 390c 1cbe 30c2 64be 1194 563d 3906 573d
00000050: 09b5 df3c 1f1c 8e3d f175 9a3d ff8f 973d
00000060: a294 573d b620 1a3d c480 8b3c b71e 193d
00000070: 0267 ebbc 1f23 aebc 225f acbd 1b81 21be
00000080: 4875 4abe 35f3 1cbd ed3b 0dbd 5367 2dbd
00000090: 3791 acbd 0cac ed3c bd20 ac3c 877d 1cbe
000000a0: cb4e e7bc 4f70 0e3e 6858 2fbe 7c59 8abd
000000b0: 9d1d 803e 69a1 5d3d 3de3 913c 07ee 253d
000000c0: e4f2 8bbd 0a51 02be 36a3 fdbd 5ab5 aabd
000000d0: 695c 1bbe 4ca1 19be f433 093d daba d93d
000000e0: 86af 983d 7451 563d d50f 5dbd 53d3 ce3c
000000f0: 740d 42bd bc0b 87be be5c 10be 56a8 883c
00000100: 84af 26bd 2bff 4abd d1a0 bebd 1acd 64be
00000110: 751e 4dbe 48fc 7b3b 3335 a2ba e97b 19bd
00000120: 513a b4bd 0187 783c e84e c33d b8fc 34be
00000130: a21a be3c 8d53 383e e927 3cbe 6cb4 32bd
00000140: e8db 503e 2dca 7dbc e4ef b6bd ab04 5cbd
00000150: cc85 e1bd 6b17 3bbe 4aff 1dbe f2a6 0b3d
00000160: cba7 493c b4cb 683d aeb8 a5bd 26d5 e0bd
00000170: 00bb 98bc 41e5 b4bb c84d 543d 2bea 0cbb
00000180: 815a 903d 75a1 8e3e edb1 993d 5bd3 eabb
00000190: 39a5 803c cce8 a13d 8806 18be cedf a03d
000001a0: 37ee 693e 0e91 39be 5727 c03d 96b2 1c3e
000001b0: ffb5 c3bd 5a43 eabd 50b7 febd 5e8c cdbd
000001c0: 62a4 21be 0d4a 9ebd 07ec f33c a98f 92bd
000001d0: 37e1 afbc 1c5d 66bd 99e6 a9bd f5f3 eabd
000001e0: 85a5 a2bd c24a 31bd 129a 82bd 6b0c a03d
000001f0: 5f26 243e 1ae1 523e 0a3a 723c 0ff1 703d
00000200: 22d5 8f3d b460 bb3d 164c c93d c507 a83c
00000210: 04d6 093e 4c08 1e3e e30f c03d 0e0a 4ebd
00000220: 4366 89bd 6c10 dabc c4ad 9fbd fb42 28be
00000230: f84e 0bbe 074c 70bd 9d57 3ebe 6ebe ecbd
