facialExpressionRecognitionLib/src/main/assets/model.pt (torch, 347588 bytes, 80 tensors)

weight f4 [8, 1, 3, 3]
00000000: 79cd 103e 062b dc3d 8ba7 033e 060c f13b
00000010: 6746 33bc aba2 133d 9b17 13be c7b9 32be
00000020: 06b9 a4bd 994b a2bc 314c 5e3d 6814 12bc
00000030: 3a99 823c 3687 a53d e940 b2bc 556f e0bc
00000040: de13 59be 9fe7 4fbd f6d8 b8bd f584 9cbd
00000050: 75ea 653c 0611 eebd 45ce a9bd 760a 8b3d
00000060: eca1 28bd 8939 223e 09fb 513e 41a8 00bc
00000070: feb5 523d 40c0 2bbc f7cc 3f3c 4960 9abe
00000080: f5af 6ebc c864 153d aeab 333e 89a5 8a3d
00000090: 9837 f63d aa09 24bc 3dcb 57bd 10a8 ec3d
000000a0: eb78 14be 615c 0b3d 6ed7 493e 190a b3bd
000000b0: e47d 1bbe 7963 9abd 838d 1cbd ffa6 a93a
000000c0: 89b0 8d3e 4769 dfbd bbc4 f23b 4e6d 1bbd
000000d0: 1c66 d0bd 24bd 1f3d 3971 bcbd a05a 19be
000000e0: e8a4 4abe 1aad 4b3d f5e8 343d 0dfb abbd
000000f0: 9edc 6b3e 28d5 313e e9bf 8a3c 1192 27bd
00000100: 6405 093d 10ba a43c 442b a0bd 29ca 593e
00000110: 379c 9f3d efef 23bd 968d 83bc 0bd4 b73a
0.14140882 0.107503936 0.12856881 0.0073561696 -0.010942078 0.036043804 -0.14364474 -0.17453681
-0.08043103 -0.019811438 0.05427188 -0.008915998 0.015942205 0.0808243 -0.021759467 -0.027396837
-0.21198985 -0.050758 -0.09025757 -0.07642547 0.01403295 -0.11624341 -0.08291296 0.06789105
-0.041170046 0.1584226 0.20505919 -0.007852615 0.051443093 -0.010482848 0.011706582 -0.30151585
-0.014568319 0.036473066 0.1754596 0.067698546 0.120223224 -0.01001207 -0.052684058 0.11555493
-0.14499252 0.034023646 0.19711086 -0.0874216 -0.15184742 -0.07538504 -0.038220894 0.0012943445
0.27673748 -0.10908752 0.007408706 -0.037946038 -0.10175726 0.038998738 -0.09201283 -0.14975977
-0.19789469 0.04972563 0.044167478 -0.083974935 0.23033378 0.17366469 0.016937213 -0.040910784
0.033452407 0.020108253 -0.07820752 0.21268524 0.077934675 -0.04002374 -0.016058724 0.0014024986

weight f4 [8]
00000000: cea3 eb3d 0c16 5d3e 91bf 073e c9d8 253e
00000010: 7be0 2c3e da30 443e a3d9 083e 31ba 7f3e
0.11505853 0.21590441 0.1325667 0.16195978 0.16882508 0.1915926 0.13364272 0.2497337

bias f4 [8]
00000000: 1214 d33c d295 ebbd 6585 973d b1ad 003e
00000010: f57c d83d 7b1f 093e 1ba6 923d fb3b 0ebe
0.025766406 -0.11503185 0.0739849 0.12566258 0.10570709 0.13390915 0.07160588 -0.13890068

running_mean f4 [8]
00000000: 8bf4 c03b 23a2 cbbd 942a a93c b2f4 c43b
00000010: 77a6 103c 9bdc a4bc 8ed3 b6bb 4654 b73d
0.005888527 -0.099430345 0.020650186 0.0060106153 0.008828751 -0.020124724 -0.0055794185 0.08951621

running_var f4 [8]
00000000: 4757 243b ddea 1d3b 2507 243b 604b 243a
00000010: ae29 033b c636 033a 26d1 843b 43b7 173b
0.0025076435 0.0024096288 0.0025028673 0.0006267335 0.0020013857 0.00050054153 0.0040532527 0.0023150004

weight f4 [8, 8, 3, 3]
00000000: 8288 1c3d b1da 813c 2e32 4b3d 4807 9a3c
00000010: 3f36 9fbc b760 5fbc e65b 1d3d 5551 9cbb
00000020: 73eb fabc 1081 a43b 8b87 8ebc 990f e0bc
00000030: 8415 8ebc eb90 1ebd a8be 3dbd 68de 29bd
00000040: 34f0 28bd 14a5 3ebd 1a58 4cbd 52f1 6d3a
00000050: 17ca 853b 4a4b 78bd e543 973b 3841 c33b
00000060: 3f81 64bd f692 6abc d79b 72ba 30f0 3bbc
00000070: 9ea0 133d c961 373b 1048 27bd bd47 583a
00000080: cc5c b63c 9c05 8ebc 843d 63bd 3983 e63c
00000090: 20af 99bc 76ca 8abc 86fd 423c b626 8abd
000000a0: 79cb 16bd 010f 013d 3a1c 3dbd 9ab8 74bd
000000b0: 1972 6d3b e209 1abc 5f59 20bd db02 d1bc
000000c0: 111a 6d3c 3683 8abc ade9 37bb 898e 063c
000000d0: 2e86 a63c 348d afbc 6928 01bd 7edf f4bb
000000e0: f939 24bd 44b1 8bbd 9169 86bd abd0 31bd
000000f0: 8813 57bd 8dba 79bd 53ed 48bd e80c 05bd
00000100: 6f44 09bd 7233 a0bc 6af0 a9bc 6928 b5bc
00000110: cbfd 08bd 62fc 21bd 3046 2ebd 6a5d 76bd
00000120: be4e dcbc d148 14bd 1733 26bb b397 a7bc
00000130: 45dd 123c 924e 423c 6306 eb3a 89d9 b63b
00000140: d358 ebbc 69b5 223a d610 7cba 4b37 1f3b
00000150: 482f eabc cb6f efbc ea98 abbb b8e7 d13d
00000160: a4d6 14bd 5408 a7bc af28 a1bc d61c 9ebd
00000170: 0b94 2fbd 4500 cb3c a28d 63bd b559 0a3c
00000180: 36d1 f73c 6a79 ff3c 1ab6 b03c 2b6c c93c
00000190: c1eb 93bc 7070 e2bc 5315 613c 6bae c93c
000001a0: 8e14 d0bc 5f8a 07be c701 063d 862a 86bc
000001b0: b2b7 d8bc 0433 71bd d962 71bd 47d3 fbbc
000001c0: d6c5 9f3d ec03 c3bc 2056 05bd 5a8e 323d
000001d0: a2a6 b53c 7eea 95b9 2af7 fd3b b550 463d
000001e0: fa32 d7bd d377 9fbb a256 87bd 92c8 33bd
000001f0: 333c 183e 77e8 32bc 4a8c f53b f5c4 ccbc
00000200: 67d5 813d b7c2 473d f1f3 213d 810f 18bd
00000210: 859f a93a edbe d43c c0cd 133d edb5 4abc
00000220: b12b a9bc de84 c6bc 8f46 b9bd 6640 85bc
00000230: 05ea 103d ebb7 a83d b4c2 23bd 1108 3f3d
00000240: b5c4 ab3c b205 483c 1982 e0bb 4ee4 863c
00000250: 920d 283c 7c08 f3bc 1890 06bc a7d0 163c
00000260: 89bb 313b d863 cf3c 44f7 afbb 9159 1dbd
00000270: 1f87 d33c c7a3 e03c 73a4 9dbc 6538 db3a
00000280: 8765 e93c d88a dabc d64c 7ebb cae4 b93c
00000290: fe89 82bc 5268 e13c 6bf1 c13c 47e0 0c3c
000002a0: d4a7 e03c 30cf 543c 7be0 d93d 7d5c 053c
000002b0: ea83 313d 995e 20bd 5bef 1a3d 6dec 913a
000002c0: eda3 a3bb e249 833d 47ee 18bd ad62 1dbc
000002d0: 1f2c c3bc 27ff aabd c587 28bd 27a8 aebc
000002e0: 8a4e b9bd c14c c83c 329c abbb af04 cfbd
000002f0: b30d 443d 592a a3bc 5e4f 473c 68d5 65bb
00000300: acc6 b93c bd17 bdbd 171f 18bc 73de 9b3c
00000310: b746 8abd cd59 073d ee92 64bc de6d fc3b
00000320: 31f5 5d3d 1e22 16bd 3ed9 5ebb 50fa f83c
00000330: 91f6 1abd fb0f 0cbd 8d5c 793c a96b 043d
00000340: 1f78 95bc f521 75bb 8071 a53c e9a5 2b3c
00000350: 0e48 e83c b5d7 62bc 7877 013e a66c c4bb
00000360: 85d5 86bd 8d71 393c 3b8b ac3c 4d02 a0ba
00000370: 22ce e63c d74d 5a3d 83da 963c c169 4bba
00000380: d9ce 663d 16a7 febc d58d d23c ccf1 383d
00000390: 73a8 fabb d5fb 183d 464d f0bc c2a8 643d
000003a0: cc40 11bd 7641 cb3b 59fb f83c ae4d b2bc
000003b0: 1a1c 40bd ea40 323b 8f7b 92bd c90c 1dbd
000003c0: 98bc e8bd 895a 08bd 51ee a73c 6799 893d
000003d0: db36 57bc 6e59 81bc 58a0 223d d15c a2bd
000003e0: 5358 d4bc 240a 9bbd 27ec 863d 918a 7bbb
000003f0: b863 c3bd 7b50 a0bb ecce b33c d3cd 413d
0.03821612 0.01585135 0.049608402 0.0188023 -0.019435046 -0.013633898 0.03841772 -0.0047704377
-0.030629849 0.0050202683 -0.017398616 -0.027351188 -0.017344244 -0.038712423 -0.046324402 -0.04147187
-0.0412447 -0.04654415 -0.049888708 0.0009076792 0.004082929 -0.060618676 0.004616248 0.0059587024
-0.05578732 -0.014317265 -0.00092547893 -0.011470839 0.03604185 0.0027981868 -0.04084021 0.0008250436
0.022261046 -0.01733666 -0.055478588 0.028138744 -0.018760264 -0.016942244 0.011901265 -0.06745665
-0.03681514 0.03150845 -0.046169497 -0.059746362 0.0036231338 -0.00940177 -0.03914773 -0.025514057
0.014471547 -0.01690827 -0.0028062866 0.008212694 0.020327654 -0.021429636 -0.03153268 -0.0074729314
-0.04009435 -0.0682092 -0.06563104 -0.043411892 -0.05250886 -0.060968924 -0.049054455 -0.03248301
-0.03351253 -0.019555781 -0.020744521 -0.022113996 -0.03344516 -0.03954733 -0.042547405 -0.06014768
-0.026893016 -0.036202256 -0.0025360042 -0.020458078 0.008963888 0.011859553 0.001793098 0.0055801314
-0.028728878 0.0006206842 -0.0009615546 0.0024294432 -0.028586999 -0.029228112 -0.0052367346 0.10249275
-0.03633751 -0.020389713 -0.01967272 -0.07720344 -0.042865794 0.024780402 -0.055554993 0.008444239
0.030251127 0.031185824 0.021571208 0.024587711 -0.018056752 -0.027641505 0.013737994 0.024619302
-0.025400426 -0.13236378 0.03271654 -0.016377699 -0.02645478 -0.058886543 -0.05893216 -0.030740393
0.07801406 -0.023805581 -0.03255284 0.04359279 0.022174183 -0.00028594205 0.0077504115 0.048416812
-0.1050777 -0.004866579 -0.06608321 -0.04389245 0.14866714 -0.010919682 0.0074935304 -0.02499626
0.063395314 0.04876968 0.03953928 -0.03712416 0.0012941217 0.025969947 0.03608489 -0.012372476
-0.020650716 -0.024233278 -0.09046661 -0.01626606 0.03537943 0.082382046 -0.039980605 0.046638552
0.02096782 0.012208389 -0.0068514463 0.016466286 0.010257142 -0.029667132 -0.008213066 0.00920502
0.0027119836 0.025316164 -0.0053700525 -0.038415495 0.025821267 0.027421845 -0.019243455 0.0016725181
0.028490795 -0.026677534 -0.0038803122 0.022692103 -0.01593494 0.027515564 0.023674687 0.008598394
0.027423777 0.0129888505 0.106385194 0.008139727 0.043338694 -0.039152715 0.037825923 0.0011133082
-0.0049939067 0.064105764 -0.037336614 -0.009606046 -0.02382475 -0.08349448 -0.041145105 -0.021320416
-0.09048183 0.024450662 -0.005237126 -0.10108315 0.047864627 -0.019917654 0.012164919 -0.0035069827
0.022677742 -0.09233043 -0.009284756 0.01902697 -0.06751769 0.033044625 -0.013951046 0.007703527
0.05418891 -0.03665363 -0.0034003998 0.030392796 -0.0378328 -0.034194928 0.01521982 0.032329235
-0.018245755 -0.0037404273 0.020195723 0.010476568 0.02835467 -0.013845374 0.1264323 -0.005994397
-0.06583694 0.0113185765 0.021062484 -0.0012207717 0.028174464 0.05329689 0.018414741 -0.0007759594
0.05634961 -0.031085532 0.025702396 0.04515247 -0.0076494752 0.03734954 -0.029333722 0.055825002
-0.035462186 0.006202872 0.03039329 -0.021765556 -0.0469018 0.0027199336 -0.07152473 -0.03834227
-0.113640964 -0.033289466 0.02049938 0.06718712 -0.013135637 -0.015789714 0.039703697 -0.079278596
-0.025921023 -0.075702935 0.06588011 -0.0038382153 -0.09540504 -0.0048924065 0.021949254 0.04731543

weight f4 [8]
00000000: 80b6 6f3e b9c0 933e 8256 9b3e 442a 8d3e
00000010: 0385 7c3e db41 8d3e afcf 923e df29 943e
0.23409462 0.28857973 0.30339438 0.2757131 0.24660115 0.27589306 0.28674075 0.28938195

bias f4 [8]
00000000: 1d61 723e 969c 7c3e 4985 483e 96b0 4b3e
00000010: d879 213e c5f9 203e 38f7 20bd b233 673e
0.23669858 0.24669108 0.19582094 0.19891581 0.15769136 0.1572028 -0.039298266 0.22578314

running_mean f4 [8]
00000000: 5ac6 d5bd 1c93 eebc 1fb3 8dbc 2738 0bbd
00000010: 1743 d0bc 80df a93c c44a a23c 16ee 39bd
-0.10438223 -0.029122882 -0.017297326 -0.033989098 -0.025422616 0.020736456 0.019811042 -0.045393072

running_var f4 [8]
00000000: eff0 f53a 2420 963a 5cf4 423b 66f5 e83a
00000010: 41d7 d33a 7d73 453b 561f dc3a f4d1 083b
0.001876382 0.001145367 0.00297477 0.001777333 0.0016162173 0.003012865 0.0016794007 0.0020877095

weight f4 [16, 8, 1, 1]
00000000: 8e53 51be 2a3f ac3c 6e0a e43d 8104 b53b
00000010: aec3 cfbc 7fb9 933c 20ce 433d 09d6 b6bc
00000020: df67 93bb 8f12 6a3c fa08 91bc e189 d93b
00000030: 07c3 a53c 6011 b6bb 3046 1abc 2fdd 6b3c
00000040: 46fc 3c3d 1157 3c3d 87d2 b9bc bf9a 5e3c
00000050: 33d8 e03c 1ee2 40bd 5f57 6bbc d008 9c3c
00000060: 0eeb 1539 0066 17b9 3466 9c38 c3ed d836
00000070: 2e5d 7839 ac0c 23b9 366f 1fb8 9833 02b8
00000080: 091c 8e39 20bf e438 f454 8e39 178c 26b7
00000090: 893c d239 9ca3 84b9 092e dbb8 d574 b5b9
000000a0: 8abe 463d d694 bcbc 1ae8 4d3b ba00 3c3d
000000b0: ada6 2a3e ed0d be3d 3b7e 06bd 27e4 1e39
000000c0: 1d1f b9bb eef5 833b 244b 94bd 062a cb3c
000000d0: aafb 04bc a426 003e b5ad 1dbd 82c6 24bd
000000e0: 5270 41bd f083 27bb 10ba 99bd bc50 fd3a
000000f0: 72f3 b4bd bbe0 d8bb 4561 f6bc 1b95 f83c
00000100: 932f 943d d60f 423c 59ce 28bd edbd 813c
00000110: df2b 41bd 1df3 233e cc1d 2fbc 12b7 f139
00000120: 5076 b03b 69cc e4bb 8274 dcbb c345 e7bc
00000130: 01de e7bc da0d 84bb 90ab bfbc 9484 933b
00000140: 6ed3 bd3b a04b f639 61a5 3a3b a734 cabb
00000150: 8cea 0c3c c873 54bc 86f3 0dbc ca7b 3dbd
00000160: 30c5 debd 15b3 77b5 61a8 333d 39f6 5d3b
00000170: a523 f5bc b749 973d 0a18 da3c 72fd 4e3d
00000180: f870 4a3d a471 8d3b 6d65 fa3c 383d 5dbc
00000190: caa7 4dbc a745 78bd f7a3 15bd d4e0 9abc
000001a0: 1da3 f33c 0a2e 433c 9d84 b53c b6c9 cc3c
000001b0: 15f2 1f3e f0db f33c 5d1e 9f3d 7997 e33b
000001c0: 04af 5bbd f2dc cabc 09d3 313d 091b 75bc
000001d0: 5349 d7bc 4f8c 723d 1e6b 853b 0f70 54bd
000001e0: eb59 79bd 8b54 eabc d868 b7bd e4a6 ffb8
000001f0: db6f a9bb c41f 18bd e4f1 3dbc 3a47 38bc
-0.2044203 0.021026213 0.11134802 0.0055242185 -0.025361862 0.018032787 0.047803998 -0.022318857
-0.0044984664 0.014286651 -0.017704476 0.006638751 0.020234598 -0.0055562705 -0.009416148 0.014395996
0.046139024 0.04598147 -0.022683395 0.013586699 0.027446842 -0.047090642 -0.014364093 0.01904717
0.00014297312 -0.0001443848 7.4576965e-05 6.4649807e-06 0.00023685835 -0.00015549612 -3.8012127e-05 -3.1042466e-05
0.00027105238 0.00010907487 0.00027147646 -9.926988e-06 0.00040099423 -0.000252989 -0.000104513085 -0.00034610057
0.048521556 -0.02302019 0.003141886 0.04589913 0.16665144 0.0928 -0.032835227 0.00015153048
-0.005649461 0.00402712 -0.072408944 0.024800312 -0.008116642 0.1251474 -0.038495738 -0.040228374
-0.047226258 -0.0025560819 -0.07506192 0.0019326429 -0.08835496 -0.006618587 -0.030075679 0.030344537
0.072356366 0.011844596 -0.041212413 0.015837634 -0.04716098 0.16010709 -0.0106882565 0.000461035
0.0053851977 -0.0069823754 -0.006727756 -0.028231507 -0.028304102 -0.0040299715 -0.023397237 0.0045018885
0.0057930266 0.0004697712 0.0028479921 -0.0061708274 0.008600842 -0.0129670575 -0.008664018 -0.046260633
-0.10877454 -9.227527e-07 0.04386175 0.0033868684 -0.029924223 0.07387107 0.02662279 0.050534673
0.04942414 0.0043165255 0.030565942 -0.013503365 -0.012552211 -0.0606133 -0.036533322 -0.018906035
0.029740864 0.011912832 0.022157962 0.024998527 0.1561969 0.02976796 0.07769463 0.006945547
-0.053633705 -0.024763558 0.04341415 -0.014960059 -0.02628008 0.05921584 0.0040716073 -0.05186468
-0.060876768 -0.028604766 -0.08955544 -0.00012190433 -0.005170805 -0.03713967 -0.011593316 -0.0112474505

weight f4 [16]
00000000: 9b36 563e 8e67 e13c 86ef 7c3d 09f6 9b39
00000010: 82e7 223a d99b 663e f14d 0d3e 5fcc ce3d
00000020: 628f 3b3e d54c 023d 0342 1e3d 0ec2 d93d
00000030: d8a4 923d 71f3 2e3e bfea 8c3d 2f6e 9a3d
0.20919268 0.027515199 0.061751865 0.00029747214 0.0006214307 0.22520389 0.13799264 0.100975744
0.18316415 0.031811554 0.038637172 0.10632716 0.07160348 0.17085053 0.06880712 0.07540547

bias f4 [16]
00000000: d5c9 8dbd 7411 afbc 7aa7 b7bc 41d5 e5bc
00000010: 8ef4 fdbb d6e4 cab9 4cb3 cabc d126 2dbc
00000020: a8e6 1cbd bf08 a1bb d454 8c3c 11d0 90bd
00000030: 25a8 933c d833 c2bc 59e9 0abd 04bf 123d
-0.06923262 -0.021370627 -0.022418726 -0.028055789 -0.0077501005 -0.00038698938 -0.024743699 -0.010568337
-0.03830591 -0.0049143727 0.017130293 -0.070709355 0.018024513 -0.023706362 -0.033913944 0.035826698

running_mean f4 [16]
00000000: 9257 c0bc 5dba bb3b 0124 b43c e01d b437
00000010: 87fc bd38 4f83 7c3d 57d0 5dbb 8cc8 26bd
00000020: 05b5 0e3d af77 6abc 3605 47bc a4be b43b
00000030: 4c74 14bb b492 793d bda1 a7bc 5c37 60bd
-0.023479257 0.0057290033 0.021989824 2.1471584e-05 9.059259e-05 0.061648663 -0.0033846104 -0.0407186
0.034840602 -0.014310761 -0.0121472385 0.00551589 -0.0022652326 0.060930923 -0.020462865 -0.054740295

running_var f4 [16]
00000000: ee2d c53a 54db 4138 4520 8a39 4fd4 9131
00000010: be4f 8732 274d 023b 1905 883a 1ced 003a
00000020: 2717 b83a 8f28 a238 38e4 bd38 b9ab 283a
00000030: 4e17 e839 e2bd 903a 0ae3 c639 c7df c239
0.0015043595 4.621905e-05 0.00026345454 4.244192e-09 1.5752331e-08 0.0019882412 0.0010377496 0.00049181446
0.0014044986 7.7323166e-05 9.054731e-05 0.000643428 0.00044267852 0.0011042918 0.0003793466 0.0003716929

weight f4 [8, 1, 3, 3]
00000000: 8aad babb 8559 9f3c 613c 27bd ae20 24bd
00000010: e7a9 1d3e a40e 213d 5323 24be 3a1b 9b3d
00000020: 99d6 af3d 4084 2a3c 44b7 30bd 5d4b 09bd
00000030: 3998 7abd c442 113e 82bd b3be d9d6 1fbd
00000040: 6501 b63d 6427 0d3e 95b5 093d cc39 ecbb
00000050: 83b1 16be 0110 ea3c bcae 8d3e c511 1cbe
00000060: ff33 5f3d 2af5 ee3d edfd fbbc 9bdb af3c
00000070: 314c f0bd 83a1 dabd d15f 08be 8ab6 40bd
00000080: 958d 473e 1456 2fbd a4d3 353e 15b8 293e
00000090: 9749 f2bc 501f 9fbc 2e7e 73bd 3904 a83c
000000a0: 2242 1c3d 37be 13bd c3db 1a3e c628 093e
000000b0: 7a72 803d e01b d63d 6435 af3d aa7d 293d
000000c0: 1457 22bd 859d 1bbd 6a89 043e 9fab 1fbe
000000d0: c330 45be 6283 043a 36eb f83d 82a3 fe3d
000000e0: c622 b8bb 96d2 ad3d 970b 4c3e 1c26 023d
000000f0: c701 423c b71e 13bb 0f59 9f3d a496 f43c
00000100: 22ec 673d 5a36 b73c ce42 cc3d 187b 5e3e
00000110: c2cb 013e dfdf 09be da39 81be 7516 52bd
-0.005696957 0.019451866 -0.040829066 -0.04007023 0.15396844 0.039320603 -0.160291 0.075735524
0.08585853 0.010407507 -0.043143526 -0.033519138 -0.061180327 0.14185625 -0.3510552 -0.039023254
0.08886985 0.13784558 0.033620436 -0.0072090384 -0.14716153 0.028572084 0.27672374 -0.15241154
0.054492947 0.11667855 -0.03076073 0.02146702 -0.11733282 -0.10675337 -0.13317801 -0.047049083
0.19487603 -0.0428067 0.17756516 0.16574128 -0.029576106 -0.01942411 -0.059446506 0.020509826
0.038149007 -0.036070075 0.15122895 0.1339446 0.06271835 0.104545355 0.08555105 0.04137961
-0.039633825 -0.03799202 0.12943044 -0.15592812 -0.19256882 0.0005054978 0.12154238 0.124335304
-0.0056193797 0.08487432 0.19926296 0.031774625 0.011841244 -0.0022448727 0.077806585 0.029856987
0.05662168 0.022364784 0.099736795 0.21726644 0.12675384 -0.13464306 -0.2523945 -0.051290948

weight f4 [16, 8, 1, 1]
00000000: 7742 dc3c f97b 3abe 2c47 da3d ec32 9e3b
00000010: 1fbb 883d 9bcb 9c3c 66c1 dc3d ff37 543d
00000020: 542d 983d 75b0 30be 4ee5 73bc 2b65 803c
00000030: a24a 923c 1831 203d 46ae 0dbd 3287 f3bd
00000040: 2be6 d03d 2f9e c8bd dd1a e93b e6ab d7bd
00000050: d6d0 873d 7027 63bd 5a23 a7bd e97d 31be
00000060: 2986 58bd 2816 143e 03d0 febd d796 c83c
00000070: bb7f 513d d472 173e 5306 08be 23e7 ec3c
00000080: cf17 823c 0d64 323c 1807 bcbc 83c6 ef3d
00000090: 1143 a83d d765 38b9 4f99 bcba d743 41be
000000a0: d1aa 443d 8490 31bd d0ea 01be 4184 f6bd
000000b0: a981 913d 548d efbb eda6 1bbe 1757 8ebc
000000c0: 7800 253d c7c4 01bd c530 b7bd db6e a13d
000000d0: 0cca 283e 7677 41be 910a 4dbd 2cb7 63bd
000000e0: d78b 79bd 3f41 cf3d b314 04be 667c 16be
000000f0: 4291 563c f9b0 77bd ee74 29bd 4078 d3bc
00000100: 0e06 94bd d2ba eb3c f2b8 4abe f45b 8ebd
00000110: 6eba 3a3d d26b 9ebd baca d03d 3795 8d3c
00000120: 70c3 7d3c ce9a ce3d aa2d 1e3c bf0a 17bd
00000130: 75af 1abd 5732 43ba 5eda 65bd c906 1b3e
00000140: a0fa af33 afd0 adb4 f9cd 1934 20e9 99b4
00000150: d080 5634 f794 2034 09d4 b3b4 ebcc 8933
00000160: 54ec 013d 2491 35be d2f5 093e 82aa ef3d
00000170: 4b7a 99bc 13d1 eb3c c54c d3bd 4b15 6e3d
00000180: f1f0 cd3d 6f3e b83c e7eb 3b3b c531 2ebe
00000190: a535 993a 2a36 c4bd 80ae c0bd 05a0 233d
000001a0: 27d3 ecbc 615e dd3d 785d f9bc 1a4e 9b3d
000001b0: 4f43 23bd eb3f d9bc 52e4 08bd 0438 613e
000001c0: e7ba 443c f576 683d 3626 703d db23 31be
000001d0: 7f4a 91bd ab19 13ba 57b2 e43c e4ea 0f3e
000001e0: 477e 1b3e 2f10 c1bd d8dc 103e 6aa1 93bd
000001f0: 7fef 843d 3316 0bbe ebe7 b6bd 4f9d cfbb
0.026887162 -0.18211354 0.10658106 0.0048278477 0.066763155 0.019140055 0.10779075 0.051811215
0.07430521 -0.17254813 -0.0148862135 0.01567324 0.017857853 0.03910932 -0.03459003 -0.11891021
0.10200151 -0.09795796 0.007113798 -0.10530834 0.06631629 -0.055457532 -0.0816104 -0.17333187
-0.05286232 0.14461577 -0.12442019 0.024485989 0.051147204 0.14789897 -0.13283662 0.028918808
0.015880493 0.010888112 -0.022952601 0.11707785 0.08215917 -0.00017585546 -0.0014388951 -0.18873535
0.048014466 -0.04335071 -0.1268723 -0.12036944 0.07104809 -0.007310549 -0.15200396 -0.017375512
0.04028365 -0.031681802 -0.08944849 0.07882472 0.16483325 -0.18893227 -0.050058905 -0.05559461
-0.060924377 0.101198666 -0.12898521 -0.14695892 0.013096156 -0.06047151 -0.04137128 -0.025814176
-0.07227717 0.028775606 -0.19797114 -0.069511324 0.04558795 -0.07735409 0.10194917 0.017283065
0.01548849 0.100881204 0.009654442 -0.036875483 -0.037764985 -0.0007446161 -0.056116454 0.15139307
8.194661e-08 -3.2375598e-07 1.4324168e-07 -2.8668092e-07 1.9977165e-07 1.4955354e-07 -3.3495624e-07 6.416834e-08
0.03171952 -0.17731148 0.1347268 0.11702444 -0.018735072 0.028786218 -0.10317377 0.058125775
0.100557216 0.022490708 0.0028674544 -0.17011173 0.0011688961 -0.095806435 -0.09408283 0.03994753
-0.028909279 0.10809017 -0.030440077 0.07583256 -0.039859112 -0.026519736 -0.03342087 0.21994025
0.012007452 0.05675407 0.05863019 -0.17298834 -0.07094287 -0.000561143 0.02791707 0.14054447
0.1518489 -0.09426915 0.14146745 -0.07208522 0.06490993 -0.13582687 -0.089309536 -0.0063358913

weight f4 [16]
00000000: 6ad9 853e 36e7 7b3e 923e 913e c037 a33e
00000010: d579 8a3e cc5a 823e d23c 953e fc47 813e
00000020: 6ad7 863e 737c 613e c3e5 4e35 74f7 953e
00000030: 39d8 813e 3507 8e3e c9f2 853e 39f6 9a3e
0.26142436 0.24599919 0.2836805 0.3187847 0.27046075 0.25459898 0.29147965 0.25250232
0.26336223 0.2202013 7.707533e-07 0.29290354 0.25360277 0.27739874 0.26161793 0.30265978

bias f4 [16]
00000000: fdff 093e 4102 033e ec6a e53d 7a14 9a3d
00000010: c7b8 2b3d e44c c1b9 e02b 133c 832a d63d
00000020: 438c ec3b 637d e73d 0441 d833 ddd4 2f3e
00000030: a92b b33d 1b0d 47bc 12d5 a2bc ddd2 24bd
0.13476558 0.12793829 0.11202034 0.07523437 0.041924264 -0.00036869117 0.008982629 0.10457327
0.007218869 0.113032125 1.007011e-07 0.17171045 0.08748562 -0.012149121 -0.01987699 -0.040240157

running_mean f4 [16]
00000000: d6ca a93c 9cf9 893b c0b3 8039 bc9c 79bc
00000010: 154f 0eb7 49df fcbb fa60 e73b f269 80bc
00000020: cabc c1bb 582c 47bb ed52 3932 febd 513c
00000030: cec7 2bbb 4c5a 14ba 9798 c1ba 4f18 613c
0.020726603 0.004210664 0.00024547987 -0.015235122 -8.482272e-06 -0.0077170474 0.007061121 -0.015675519
-0.005912398 -0.0030391421 1.0787272e-08 0.012801645 -0.0026211622 -0.0005659207 -0.0014770207 0.013738706

running_var f4 [16]
00000000: 4fef 9b39 ba8f b839 4aaf 013a 6fa0 f839
00000010: c2b7 0b3a 9799 8b39 59af 0e3a 2b04 a739
00000020: c085 b039 690a c839 508f c426 afcc ce39
00000030: 8f1e a139 31b7 063a fff9 173a 2151 e939
0.00029742203 0.000352023 0.00049470796 0.00047421778 0.0005329811 0.0002662658 0.0005442999 0.00031855828
0.00033668987 0.0003815473 1.3639077e-15 0.00039443883 0.0003073108 0.0005138992 0.0005797445 0.0004450167

weight f4 [16, 1, 3, 3]
00000000: 6214 8d3d 97b0 a33d 18b6 f7bd a062 88bc
00000010: 19ac 5d3e 8514 6e3c 8d61 53bd c493 5d3d
00000020: 0c53 003e a7c0 823c 5b6f 31bd 6d17 9bbd
00000030: 5d66 c5bc 5f80 1f3e 9445 1d3e 87ae 49bd
00000040: 6989 25be af9e 61bd a5ea 1f3e f6a9 3d3d
00000050: 9e40 b7bd d92b 5d3e 836f a73d 0b30 89bd
00000060: cec5 b63d 2b2a 873d 0a24 9b3b 76f5 9ebc
00000070: 7cb2 11be 12e1 923b 2854 4d3e 2e23 3abd
00000080: 5104 59bd cb5a bc3b 0c42 453e 4045 03be
00000090: 9449 eebd 6ac4 1ebd 7ceb 373e b73c dc3d
000000a0: f194 393d 1ec4 3f3d 831b b33d d5ab f23c
000000b0: d3ba fdbd 4d5f b13d 9e5b 113e 7094 d13d
000000c0: 0e1f 9f3d 5dea 963d 7f62 913d d5f6 093d
000000d0: bb02 85bd f45c 28bd 8c01 9e3d e3c5 833d
000000e0: c24b 013d cb69 f53d fdd0 be3d 6201 443d
000000f0: 083f d73d 12fd 133e 24da f63d 6ef5 08bd
00000100: 9f4d c2bd dd29 0cbd 36dc 9ebd 637f cbbd
00000110: c8af 193e 44ad 05be 1022 16bd ea42 df3d
00000120: 4086 543d a63d 383d 76ed 41bc e39e 273e
00000130: 96d5 a13d 4eeb b33d aad0 243c bd85 803d
00000140: e054 0e3e 294e 29bd 724b 2ebd 833a 6dbd
00000150: ee5c 823d 545c 223e dc6d 213e cab2 2a3d
00000160: b884 82bd 243d a2bb 26f1 edb3 f1df 80b3
00000170: e70b a933 ca52 9db3 a96c 1a32 88f2 8833
00000180: 8fe2 c432 0cff c034 123d fb34 cea2 e73d
00000190: ff3a 02bc d4f5 e9bd 9f25 e13d 4283 6bbe
000001a0: a493 f83d 6e0e 6d3b bb1d 78bd fc54 143e
000001b0: 4d4a 77bc cc82 87bd 683a 573d 10b8 b73d
000001c0: 0934 933d e4df 29bd b5cc 0a3d b768 b6bd
000001d0: ccd0 5abe 1629 c2bd 86a9 92bd 72af e9bd
000001e0: 0115 58bd c9fc 1fbd 914a 0ebe 7d94 fdbc
000001f0: 893d e6bd a3c3 03be 5845 d23d 8b48 cc3d
00000200: f3a0 e33d 7ba6 aa3d bfcd 633d 6b49 9a3d
00000210: 393a 823d 9726 c93b 749f 013e f69c 413d
00000220: 66f3 3e3d 3730 aa3d 9802 4e3d 0538 233e
00000230: f4eb 0b3e f705 c93d a5b7 033e 961a 563d
0.06888653 0.07992666 -0.120952785 -0.01664859 0.21647681 0.014531259 -0.051606704 0.054096
0.1253168 0.015961004 -0.043319087 -0.075728275 -0.024096662 0.15576313 0.15358573 -0.049238708
-0.16165699 -0.055082973 0.15616854 0.046304666 -0.089478716 0.21598758 0.08175566 -0.066986166
0.08924447 0.0659984 0.004734521 -0.019404154 -0.14228243 0.004482397 0.20051634 -0.045443706
-0.052982632 0.005748128 0.19263476 -0.12819386 -0.11635128 -0.038761534 0.17960924 0.10753768
0.045308057 0.04681789 0.08745482 0.029622952 -0.123891495 0.08660755 0.14195105 0.1023339
0.07769595 0.0736892 0.07098865 0.033682663 -0.064946614 -0.041104272 0.07715139 0.06434228
0.03156639 0.11983069 0.09317205 0.04785288 0.10510069 0.14452007 0.12053326 -0.033437185
-0.09487461 -0.03421961 -0.07756846 -0.099364065 0.15008461 -0.13054377 -0.03665358 0.10901435
0.051885843 0.044980668 -0.0118364 0.16369204 0.079020664 0.08785115 0.010059515 0.062755086
0.13899565 -0.041334305 -0.04255242 -0.05791713 0.06365381 0.15855533 0.15764564 0.041674413
-0.0637297 -0.004951136 -1.1080037e-07 -6.001199e-08 7.871841e-08 -7.3259415e-08 8.988686e-09 6.37711e-08
2.292043e-08 3.5948358e-07 4.6796828e-07 0.113103494 -0.007948636 -0.11423841 0.10993504 -0.2299929
0.12137535 0.003617193 -0.06057523 0.14485544 -0.015093398 -0.066167444 0.052545935 0.08970654
0.07187659 -0.041473284 0.03388663 -0.089066915 -0.21368712 -0.09480493 -0.0716124 -0.11410417
-0.052754406 -0.039059434 -0.13895632 -0.030954594 -0.11242206 -0.12867598 0.102671325 0.09974774
0.11114683 0.08332535 0.055616137 0.075335346 0.06358761 0.0061386335 0.12658483 0.04726883
0.04661884 0.083099775 0.050295442 0.15939339 0.13664228 0.09815591 0.12863024 0.052271448

weight f4 [16, 16, 1, 1]
00000000: cb3e a53c 2d6a 07bb 42f2 c3bb 36ad 503c
00000010: b84d 053d af2a 1abb f258 d0bd 14f5 1a3d
00000020: 2d49 db3d 82d2 afbd 2379 c833 f392 1fbe
00000030: 0de5 d03d 8d2c 72bb 3bed 973d 6e5a 9c3d
00000040: 070b c8bc 52c6 9e3c 27a5 47be 9dce 3cbd
00000050: 6a4e 58bd cb98 213e dc92 a9bd b755 183d
00000060: 049e d43d de65 4fbd da83 a832 e51b 053d
00000070: 9618 f63a 9a04 fabc 60f6 44be efe9 c63c
00000080: f4aa e4bd f3e7 febc 6a5a 303c ceb2 bc3c
00000090: 7942 dbbb b0f7 37bd 9f82 023d 65f4 32bd
000000a0: f3d6 793c 1dde a1bc fa18 0ab3 c375 9c3e
000000b0: 05e3 a43c 7fff d8bc 6c94 4abd fb60 51bd
000000c0: 29e8 26bd b9ae 4fb9 40c0 84bc 2c56 183c
000000d0: 77d9 c3bd d619 d83d b7ce b9bd f294 4abe
000000e0: 11c7 963d 2543 873d 9c9c ad33 6b66 11bd
000000f0: 814b a3bc eb44 023e 6364 56bd da40 b63d
00000100: 23d1 8fbc e0e8 c93a 4268 8dbd 4390 a83c
00000110: 2799 dd3c da24 ddbd 7444 8b3d ff73 443e
00000120: 0699 f43b cd7a 4abc f6f3 0634 27cf 933b
00000130: 19be 35be d247 023e 3d68 833d 2f3b fcbd
00000140: 9593 9ebc 3546 103d 5357 5abd 4a88 ae3d
00000150: 1e4e 83bd e29e 553c 1ab2 d4bc a26f 1bbc
00000160: 72c5 f9bb 0a43 103c 8796 5733 be5d e53b
00000170: 6113 69bc 6f7b 0fbd b565 9ebc b74f 063a
00000180: fbce 27bd 70b5 8e3c 71ba 5cbd 82a8 593d
00000190: 0af2 40bc c328 d9bc cb93 3a3e b0f6 02bc
000001a0: f2c3 edbb e2e9 ac3c 1975 f0b3 d187 a03c
000001b0: cf66 90bd 91db d8bd bd5f a6bc 8e7f 253e
000001c0: 129e 1cbe 1c8f 9abd a6bf 853d 904e 3bbe
000001d0: 510d 153d 8f80 043c 8bc7 08be 78e7 a13c
000001e0: f196 9bbc 81f0 e13b 984c 4333 e7df 46bc
000001f0: f320 893c 1d2b 89bd c853 09bd 92eb 1b3d
00000200: 70b1 5c3d ee7c 8abd d8ea 113d 7478 ab3d
00000210: 050d 93bd 9a05 7e3c 4f38 373d ead5 07bd
00000220: f7d4 a7bc 31c9 b63d 394a 5f34 0202 f43d
00000230: b40a 523d e0c3 07bd 9600 ffbc 26f0 c8bd
00000240: 5a58 4cbd 1ec8 853d c740 183e f1b6 e43c
00000250: 9f40 88bd e2a9 babb 479e 383e 3b58 553c
00000260: ba6c 51bd 938a 45bd 7a9a ea33 fbd5 9fbc
00000270: 2e2a d5bc c7d9 a63d 6b83 813c c323 a7bc
00000280: 4e50 b1ba 3ddc 9c3c 9cdd 183d 36a5 afbc
00000290: bd03 3c3e e457 0abd 8442 013b aafd a7bb
000002a0: 9b4d e1bc ad19 27be 800d 9eb4 08f8 5f3a
000002b0: 3a02 23be 148a 0bbd 712e 033e fe2b 93bd
000002c0: 51ef 003c 892a 4bbe 5315 47bd 83e7 cf3c
000002d0: a962 20bd f115 e2bc 41e0 c83d d33a 82bb
000002e0: b337 693d 7c0e ec3d 2f3e 6bb3 e3dd 253d
000002f0: 56f8 b03b 6d75 24be b264 573d f084 01bd
00000300: 67c3 503c f98d 813c af43 313e 699d f4bd
00000310: 83cf 32bd 6486 c03d 9eb4 e8bd 0724 7c3b
00000320: abc2 eabd 4b23 01bd fc19 7034 14e4 f8bc
00000330: 1237 ec3c a0d2 52bd 9221 85bd 04d3 193e
00000340: 26cf 543e 5f73 943c 9759 583d a5e6 4abd
00000350: 511b 39bc 64ae ea3b 1ea7 18bd 5740 213d
00000360: c1bd 173e 616c 92bd a839 a9b4 0270 a43c
00000370: 2159 523d 2341 78bd 1422 13bd d1a4 8e3c
00000380: 7b05 fa3d 4e32 553d 6b4f 55bd d936 793e
00000390: 5f55 57bd ea03 ac3a 3fc4 8f3c 8146 9abd
000003a0: 2ba9 18bd 0017 40bc 5514 4fb4 8731 48bd
000003b0: b730 e5bc 8d4b 3dbd 6f45 c5bd 1c61 6f3d
000003c0: ffb6 55bd 09b5 57be 0b2a b13c 88f3 f13c
000003d0: b353 123e 4d52 57bd 1cfc f4bc 6659 33bd
000003e0: d82e e1bd 9e69 af3d 44b4 4534 e8f2 883c
000003f0: 733e 08bd a349 dbbd a1d5 e9ba 2e67 94bd
0.020171544 -0.002066265 -0.005979807 0.012736609 0.03254482 -0.0023523977 -0.10173215 0.03783138
0.107073165 -0.08585073 9.3352604e-08 -0.155834 0.10199938 -0.0036952824 0.07418295 0.076344356
-0.02441932 0.019381676 -0.19496594 -0.04609548 -0.052809156 0.15780942 -0.08279964 0.03719112
0.103817016 -0.050634257 1.9617733e-08 0.032497305 0.0018775638 -0.030519772 -0.1923461 0.02428147
-0.11165419 -0.031116461 0.010763744 0.02303448 -0.006691274 -0.044913948 0.03186285 -0.043690104
0.015249002 -0.019759232 -3.2153345e-08 0.30558595 0.020127783 -0.026489018 -0.049457952 -0.05111788
-0.04074875 -0.00019806148 -0.016204953 0.009297889 -0.095629625 0.10551803 -0.09072631 -0.1978338
0.07362188 0.06604604 8.084427e-08 -0.035498064 -0.019933464 0.12721603 -0.05234183 0.08899088
-0.017555779 0.0015404485 -0.06904651 0.020576602 0.027050568 -0.107980445 0.06800166 0.19184874
0.007464531 -0.01235838 1.2568475e-07 0.0045107785 -0.17748298 0.1272271 0.06416366 -0.12315976
-0.019357482 0.035223205 -0.053305935 0.08522089 -0.06411384 0.013038369 -0.025963832 -0.009487065
-0.0076224143 0.008805046 5.0195492e-08 0.0069997003 -0.014225812 -0.035029825 -0.019335607 0.0005123573
-0.040968876 0.0174205 -0.053888742 0.053139217 -0.011776457 -0.026508695 0.18220441 -0.007993385
-0.0072560245 0.021107618 -1.1197171e-07 0.019596012 -0.07050859 -0.10588754 -0.020309323 0.1616194
-0.15294674 -0.07546827 0.06530695 -0.18291688 0.036389653 0.008087291 -0.1335737 0.019763693
-0.018992873 0.0068951254 4.5471637e-08 -0.012138343 0.016739344 -0.06697676 -0.033527166 0.038066454
0.053880155 -0.0676211 0.035624355 0.08372584 -0.07180218 0.015504265 0.044731434 -0.03316299
-0.020487292 0.08925093 2.0795495e-07 0.119144455 0.05127974 -0.033145785 -0.03112821 -0.0981143
-0.049888946 0.0653231 0.1486846 0.027919265 -0.066529505 -0.005696521 0.18029128 0.013021524
-0.05112908 -0.048227858 1.0924573e-07 -0.019511214 -0.02602109 0.081470065 0.015809735 -0.020402795
-0.0013527961 0.019147987 0.03732072 -0.021441083 0.18360801 -0.033775225 0.0019723484 -0.0051266747
-0.027502825 -0.16318388 -2.9439616e-07 0.00085437344 -0.15918818 -0.03406723 0.12810685 -0.07186125
0.0078695575 -0.19840445 -0.04860432 0.025378948 -0.03915659 -0.027598353 0.09808398 -0.0039742975
0.056937885 0.115262 -5.4771757e-08 0.04049481 0.0054006977 -0.1606042 0.052586265 -0.03162092
0.0127419 0.015814768 0.17310975 -0.11944086 -0.04365493 0.09400633 -0.11362575 0.0038473622
-0.11462911 -0.0315278 2.2361195e-07 -0.030382194 0.028834853 -0.0514704 -0.06500544 0.15021902
0.20782146 0.01812142 0.052819815 -0.049536366 -0.011298017 0.0071619023 -0.03726875 0.039368
0.14818479 -0.07149578 -3.1520653e-07 0.02007294 0.05135453 -0.060608994 -0.03592117 0.017412575
0.122080766 0.052049927 -0.052077692 0.24337329 -0.05257165 0.0013123725 0.017549632 -0.07532979
-0.037270706 -0.011724234 -1.9285774e-07 -0.048875358 -0.02797733 -0.04621463 -0.09632384 0.05844222
-0.05217647 -0.21065153 0.021626493 0.02953507 0.14289741 -0.052568723 -0.029905371 -0.04378643
-0.10995263 0.08565067 1.8412635e-07 0.01671739 -0.03326268 -0.107074045 -0.0017840156 -0.072462425

weight f4 [16]
00000000: 5d66 823e e3de ac3e 8545 a93e 468d 9a3e
00000010: 03b4 a43e 2abf 043e 2c35 913e 6ebc 9c3e
00000020: e22b 6d3e 461a 873e 9f82 983e c06c 9f3e
00000030: 3062 ab3e d953 8e3e 762f 9b3e b87e 9b3e
0.25468722 0.337638 0.33060852 0.30185908 0.32168588 0.12963548 0.2836088 0.3061251
0.23161271 0.26387233 0.29787156 0.31137657 0.3347335 0.27798346 0.30309647 0.30370116

bias f4 [16]
00000000: cfc9 8dbd 7411 afbc 71a7 b7bc 48d5 e5bc
00000010: bbf4 fdbb 0fe6 cab9 4fb3 cabc cb26 2dbc
00000020: abe6 1cbd 3909 a1bb cf54 8c3c 17d0 90bd
00000030: 23a8 933c cd33 c2bc 5ee9 0abd 06bf 123d
-0.069232576 -0.021370627 -0.02241871 -0.028055802 -0.0077501214 -0.0003869985 -0.024743704 -0.010568331
-0.03830592 -0.0049144295 0.017130284 -0.0707094 0.01802451 -0.023706341 -0.033913963 0.035826705

running_mean f4 [16]
00000000: b3b3 45bb 6d86 9fbc 4489 bbba 38f1 a4ba
00000010: e012 4bbc e946 b6bb f059 583c 4002 05bc
00000020: abea 003c 07a2 0a3c 5583 b23b b4bb 743c
00000030: d352 c93b 5a19 6f3c cb6f 843b dbcd 5c3b
-0.0030166924 -0.019473279 -0.0014307876 -0.0012584096 -0.012394637 -0.0055626524 0.0132050365 -0.008118212
0.007868449 0.008461482 0.005447785 0.01493733 0.0061439066 0.014593447 0.004041647 0.0033692035

running_var f4 [16]
00000000: c2b1 0139 5525 2f39 d8e4 9f39 ce64 4639
00000010: f7e7 6139 d89e 3538 e1e9 8e39 2491 5b39
00000020: 989e ed38 afc9 6e39 9415 3139 3716 8239
00000030: e917 6439 9a40 1239 6b6b 7a39 c8c9 1c39
0.00012368619 0.00016703208 0.00030497345 0.00018920304 0.00021544086 4.3301698e-05 0.00027258604 0.00020939537
0.00011330581 0.00022772582 0.00016888074 0.00024812084 0.00021752682 0.00013947711 0.00023881874 0.00014952489

weight f4 [32, 16, 1, 1]
00000000: fae9 b03c c8b4 c43c 5154 f73c b6fc 8f3c
00000010: ecfa ef3c 248a 853b bbee c1bb ffb2 84ba
00000020: 7752 6b3c c279 54ba d0fe c53c 58ba 453d
00000030: 0e32 753c d0d3 3a3c da5d 9fba e905 19bb
00000040: d4d7 b83c 1736 253c 67d5 debc 3e65 923b
00000050: fa92 32bc 2f31 17bd 2a47 233d 977f 23bc
00000060: 55b3 903c 7d33 0b3c e122 c33b d067 d739
00000070: bf5e a93c 8d0a 76bd cde9 74bc 9b73 72bc
00000080: 98eb 46bd 77fc e4bc 5830 3bbd 0c80 83bb
00000090: 0547 f33c 6226 923c ea34 64bc 52b8 36bc
000000a0: 4c11 37bd 4ead 57bc 805f 74bd 30e9 8bbc
000000b0: 5f16 c5bc d806 6fbd df99 41bc 4496 e539
000000c0: 80e7 b2bc 6420 7d3b 4129 a23c 75f3 e23c
000000d0: bee9 693c 62fe 90bc ce56 2c3d 6bfa ec3a
000000e0: 782b d8bc 4768 703c f727 143c ce32 673c
000000f0: 4e08 eb3c 38e3 f2ba 6d3f 783a 7c72 05bd
00000100: 4a19 7cbc bea7 9abc 79b8 3fbc 6b4d 6fbc
00000110: 1905 c13c e71a 3abc 0179 b03c 81ae 06bd
00000120: b4b8 04bd 28ba 3f3c 2732 88bc b2e2 c9bc
00000130: 5ac0 3bbd 65de c1bc 5a00 c3bc 44a5 2cbc
00000140: bf20 38bd 0807 bcbc 2ffe 9ebc 71ba e5bc
00000150: 6d21 8fbc 3377 a23c 8c5a bcbc 5ab7 b6bc
00000160: f180 ca3c 673d 78bc 5edf 7fbc 850d 85ba
00000170: 05e4 5dba ac7d 113d 3718 033c f505 fdbc
00000180: cf8e 333c 54fa 643c d272 c6bc 30c7 87bc
00000190: 344d 703b 8513 6ebc 080f abba f16f 3cbb
000001a0: abf2 57bc 875c 5ebc c1bc 123c 01a8 fb3c
000001b0: 9127 b53c cd80 2f3d f793 e63c 11d1 5bbc
000001c0: 3ca6 c5bc e0d4 d5ba d14c 723b 246b e73c
000001d0: b3a5 cebc 9bd2 99bc 686e f1bc e0ae 983c
000001e0: 3847 183d 8299 4abd 78a1 983b f7dd 8abc
000001f0: 2dbc 5d3d 18e7 89bc d2ef fb3b d56e ba3c
00000200: 8d1f 94ba 2b51 293d 5399 5ebd 811a 123c
00000210: 7f9c 9cbc 79b2 d33c 6fd3 c63b 1cc0 603b
00000220: 5949 3e3c 09d8 3dbd f123 453d 22a7 0fbc
00000230: a025 af3b efa1 043a 85bb b2bb 7e1c a93b
00000240: 2a57 963c 6a32 99bb 5285 72bc 23f1 a23c
00000250: c524 923b 681b c6bb 81ce 123d b16c 52bb
00000260: fa64 c8bc 95b0 57bc 6281 33bd c327 febb
00000270: a2ce aebb 75f3 d33c 13d9 d43b 142d 03bc
00000280: 4401 31bd c019 7ebb 1b16 f93a 69bb 32bc
00000290: 257e d5bc 4b22 d0bb 96ba d7ba 5fc6 5abc
000002a0: 5b16 11bd 0b8a 8a3c 1d58 d13b 6caa 883c
000002b0: 798b 5abb 4824 1ebc 39dc 8e3c 13f1 2dbb
000002c0: 4500 74bd 5a2e 523d 9a8f bfbc d4f2 cfbc
000002d0: a3ec c8bc 6fcf 4abc e3c5 d9bc 2c9c 013d
000002e0: 070c 21bc 14c5 27bd 95a4 a5bc 5f92 87bc
000002f0: cca0 b53c 7498 633b addb eb3b 3cad 693c
00000300: 0b31 d8bc c435 aabc 7615 3abd 4d08 94bc
00000310: 54fc 90bc b01b fe3c a9b2 44bc 470e e0bc
00000320: ab9c 9ebb f789 a4bc e4fe 193c cbb3 1abc
00000330: f5ef 1dbc e0d6 0dbd 8301 27bd 1c83 bbbc
00000340: 7944 18bd 3a20 ca3c bb73 3cbc d758 4a3c
00000350: 8fd8 a2bc 34e8 75bb c720 003c 862a 20bc
00000360: 96a1 04bc 0e0d 8cbc 6887 d23b 073e 15bc
00000370: d649 3dbb cb40 e83c 809c 113a a801 22bb
00000380: 27bc 95bc 1784 003c 56a7 acbb 51a9 003d
00000390: 04e7 a63c a858 863c 5a36 49bc 7b27 6cbd
000003a0: 41b3 963c ce68 4c3c 0e51 1fbc 4639 ad3c
000003b0: 6b8b 433c ba00 423b 6dd7 44bd f612 32bc
000003c0: d076 81bc d9ba 4f3d 97a2 04bb e969 22bd
000003d0: 5f3d 6fbd b340 8dbc 0cfb d5bb d97e 83bc
000003e0: fbc8 743c 3eb0 67bd a913 a7bc 49cd 93bc
000003f0: 8988 28bd ccc6 2dbd b0b1 09bd 934d a5bc
0.021595944 0.024011984 0.030191572 0.017576557 0.029294454 0.0040753055 -0.0059183515 -0.0010124146
0.014362923 -0.00081053015 0.024169356 0.048273414 0.014965547 0.011403039 -0.0012158707 -0.002334947
0.022563852 0.010083697 -0.027201368 0.0044676354 -0.0108993 -0.03691214 0.03986279 -0.00997915
0.017663637 0.0084961625 0.0059550856 0.00041085342 0.020675061 -0.060068656 -0.014948321 -0.01479807
-0.048564523 -0.027952416 -0.0457004 -0.004013067 0.02969695 0.017840568 -0.013928631 -0.011152344
-0.04469423 -0.013163878 -0.05966139 -0.017078966 -0.024058519 -0.058356136 -0.011816471 0.0004379024
-0.021838903 0.0038624043 0.019795062 0.02770398 0.01427692 -0.017699424 0.04207497 0.0018080001
-0.026387915 0.014673299 0.0090427315 0.014111234 0.028690483 -0.0018530851 0.00094699004 -0.032579884
-0.015386889 -0.018878814 -0.011701697 -0.01460586 0.023562001 -0.011358953 0.021542074 -0.032881264
-0.03240271 0.011702098 -0.016625477 -0.02464423 -0.045837738 -0.023665616 -0.023803879 -0.010537449
-0.044953104 -0.022952572 -0.019408314 -0.028043004 -0.017471993 0.01983223 -0.022992395 -0.022304226
0.024719687 -0.015151358 -0.01561722 -0.0010151124 -0.00084644585 0.03552024 0.008001379 -0.03088663
0.010959341 0.0139756985 -0.024224672 -0.016574472 0.003666711 -0.014531021 -0.0013050744 -0.0028753246
-0.013180415 -0.013571865 0.008956135 0.030719759 0.022113593 0.042847443 0.028146727 -0.0134165445
-0.024127118 -0.0016314052 0.0036972056 0.02824933 -0.025225496 -0.018777182 -0.029471591 0.018638074
0.037177294 -0.049462803 0.0046579204 -0.016951544 0.054134537 -0.016833827 0.007688501 0.022757927
-0.0011300907 0.041337173 -0.05434544 0.008917452 -0.019117592 0.025841938 0.0060676853 0.0034294194
0.011614167 -0.046348605 0.04812998 -0.008767875 0.0053450614 0.00050595304 -0.005454483 0.0051608672
0.01835211 -0.0046751993 -0.014802294 0.019890374 0.0044599497 -0.0060457475 0.03584147 -0.0032108242
-0.024462212 -0.013164659 -0.04382456 -0.007756205 -0.005334691 0.025872925 0.006495604 -0.008006353
-0.043214098 -0.0038772672 0.001900378 -0.01090894 -0.026061127 -0.0063517443 -0.0016458805 -0.013352959
-0.03542171 0.016911527 0.0063886777 0.016682826 -0.0033347292 -0.009652205 0.017438995 -0.0026541397
-0.05957057 0.051313736 -0.023383904 -0.025384344 -0.0245269 -0.012378558 -0.026583618 0.031643078
-0.009829528 -0.040959433 -0.02022008 -0.016549287 0.0221714 0.003472832 0.0071978183 0.014262494
-0.026390573 -0.02077759 -0.045430623 -0.018070364 -0.017698444 0.031019062 -0.0120054865 -0.027350558
-0.0048404536 -0.020085318 0.00939915 -0.00944228 -0.00963973 -0.03462875 -0.040772926 -0.022889666
-0.037174676 0.02467357 -0.011502202 0.012350283 -0.019878654 -0.0037522437 0.007820315 -0.009775763
-0.008095166 -0.017096069 0.006424833 -0.009109027 -0.002888312 0.028351208 0.00055546314 -0.0024720225
-0.018278195 0.007843993 -0.0052689714 0.031411473 0.020373829 0.016399696 -0.012281025 -0.05765484
0.018396022 0.012476159 -0.009723915 0.021145474 0.011935095 0.0029602484 -0.04805701 -0.010868778
-0.015803725 0.0507153 -0.0020238513 -0.039651785 -0.058408137 -0.017242765 -0.0065301713 -0.016051697
0.014940496 -0.056564562 -0.020395117 -0.018042224 -0.041145835 -0.042425916 -0.03361672 -0.020178592

weight f4 [32]
00000000: 6158 553d 506a 693d 3174 cd3d 12a7 533d
00000010: ec83 6e3d 22ec 863d 3b48 333d 10ae 8e3d
00000020: 7c8e 5d3d 1bb1 3c3d 6820 363d b694 ac3d
00000030: 448f 9f3d 0e97 fc3c f751 793d 68ed be3d
00000040: 9316 6a3d e5e6 393c 1b03 4a3d 7e9f 5c3d
00000050: d1be 183d 588a 9c3d afc2 a33d 5ecc f43c
00000060: 7c28 c43d 8464 ae3d 15f4 d93d 1268 a33d
00000070: 1ab1 193d 1727 e53c 5a70 443d 9bcf 913d
0.052086238 0.056986153 0.100319274 0.051673003 0.05823128 0.065880075 0.043770056 0.069667935
0.05409096 0.04606734 0.0444645 0.08426802 0.077909976 0.030833747 0.060869183 0.093226254
0.057150435 0.011346553 0.049319368 0.05386304 0.03729135 0.076435745 0.07996117 0.029882606
0.09578034 0.085152656 0.10642258 0.07978834 0.037522413 0.027972741 0.04795871 0.07119676

bias f4 [32]
00000000: 9f01 31bc f306 aabc 8b11 76bc c146 cfbb
00000010: 7a88 93bc 0a76 afbc fa15 a33b 4c17 573c
00000020: 025a dabc 4e2c b8bc 4e76 06bd 3fab c43c
00000030: 0b41 d0bc a6a9 7fbc 4505 383c d840 4dbd
00000040: df53 1fbd 0509 27bd 7e0e 5bbd 84d8 263c
00000050: 958c 52bb 87b5 cf3c e725 bebc 2cb8 86bc
00000060: e65e da3c 8449 093d 8b86 45bc 4b30 ab39
00000070: 908f 56bd 2486 88bd 3550 393a e11b 1dbd
-0.010803609 -0.020755267 -0.015018831 -0.006325573 -0.018009413 -0.02141859 0.004976985 0.013128113
-0.026654247 -0.022482064 -0.032827668 0.024007438 -0.02542164 -0.015604412 0.011231725 -0.050110668
-0.038898345 -0.040780086 -0.053480618 0.010183457 -0.003212725 0.025355114 -0.023211433 -0.016445242
0.02665658 0.033517376 -0.012056003 0.00032651643 -0.052383006 -0.0666621 0.0007069142 -0.038356666

running_mean f4 [32]
00000000: 4881 753c 7a0d dbbb 5726 b3bc 7e93 213c
00000010: 3128 8ebc 0b0c 83bc 3bc1 b83a 8190 253c
00000020: 042d 9a38 484d 17bc 2c81 fcba a31d 973a
00000030: ae0a c0bc d319 90ba 9a50 c3bb 32fd 01bd
00000040: 08aa 29bc f5ac cfba 0653 e83b 44f6 1fbc
00000050: 9659 9338 bb56 adbc aa71 9ebb bb68 84bb
00000060: 6395 773c f29a f13c 0f0a 023d c228 af3c
00000070: e529 443b fa8a a0bb 0a41 0dbc 5920 b23c
0.014984436 -0.006684956 -0.021868868 0.009861825 -0.01735315 -0.015996953 0.0014095673 0.010105253
7.351677e-05 -0.009234734 -0.001926457 0.0011529218 -0.023442592 -0.0010994024 -0.005960536 -0.031735606
-0.01035548 -0.0015844392 0.0070899753 -0.009763304 7.026193e-05 -0.02115952 -0.004835327 -0.004040805
0.0151113 0.029492829 0.031747874 0.02138174 0.0029932198 -0.00489938 -0.008621464 0.02174394

running_var f4 [32]
00000000: be8c c839 26f5 5a39 945b 803a 5468 0039
00000010: 4494 d239 7e77 a239 1006 5739 cfb7 b139
00000020: c44c d938 5929 ca38 c54c f838 a457 053a
00000030: 6329 0a3a 406b bd38 8deb 7439 61fd 333a
00000040: dbfc ad39 b69d 2937 25eb 8239 8e1f b039
00000050: 6ac5 1d39 6fea b039 7e5d 8e39 eba3 8438
00000060: 2329 173a 740d bb39 ad7e 4f3a b597 283a
00000070: 30a2 9f38 88e8 8638 6ec5 bc38 0f93 7c39
0.00038251834 0.00020881425 0.0009792917 0.00012245897 0.00040164788 0.00030988076 0.00020506256 0.0003389702
0.00010361665 9.639812e-05 0.00011839861 0.0005086607 0.00052704493 9.032199e-05 0.00023357403 0.00068660645
0.00033185523 1.0109905e-05 0.0002497073 0.00033592846 0.00015046229 0.00033744003 0.00027154008 6.3247826e-05
0.0005766323 0.00035677443 0.00079152995 0.00064312975 7.6119206e-05 6.43293e-05 9.001313e-05 0.00024087376

weight f4 [16, 1, 3, 3]
00000000: eb09 1d3d 6eee ce3d 4a5c 0f3e c6b9 da3c
00000010: 6fe6 613d 2e47 713d 82d7 71bd 510f 98be
00000020: 7315 e2bd 1e61 9f3c 14c0 2e3d dcdc 2c3c
00000030: 7b62 c53d b451 773e 0fea 233e d246 0a3d
00000040: d780 883d 37c4 263d c016 b7bd 7fe3 26bd
00000050: b9bb 20bd 5fa1 833d b800 1d3e d1d3 ca3d
00000060: 665f f73d 9fcf 3b3e 3ea2 c33d 6cd0 c73b
00000070: c890 ab3c 532e 873b 16cb 803d f35b 283e
00000080: 8c2a 333e 64ba 233d d068 d83d bb9a e63d
00000090: 2524 ae3d c1aa 5b3d d990 c53d 6690 7a3d
000000a0: 34c7 293e ee64 bd3d 122e 023e 47a1 213e
000000b0: 28a8 0a3c 69de 893d bcef 913d a5ee d03d
000000c0: ae02 513d 9b9c 4d3d 2f2c b53d 92c2 c0bd
000000d0: 388c 323e 576b ef3d 82b3 5f3d 8795 bd3d
000000e0: fc5a 42bc ab83 083e c501 3f3d c564 d1bd
000000f0: 8ad6 b13c 87bb 21be 1375 75be af7f 703d
00000100: 0147 11bd 8d03 aabd 370f 223c 4e63 b93d
00000110: d63d 993d c726 1dbd 293a 093e 35dc 793e
00000120: 789f 863d 7a88 b53b f878 bbbc db0b 05be
00000130: d514 21be 46b9 00bc fe21 3bbe 6bac febd
00000140: bb6b 383d 9058 a83d acfe ca3d 3290 e83c
00000150: 669f aa3d 1ef4 073e b3c6 8e3d 46f9 83bc
00000160: 97f5 8c3d 6441 013e 22cc 7b3d 9b5c cebc
00000170: c787 52bd cf2c 0cbd c4a0 0fbe facb 23be
00000180: b889 08bd c24d 12be b939 11be 9ad4 a0bc
00000190: 7694 24bd fb8f dc3d 9341 35be 8dd0 debc
000001a0: 1cd7 243e 277c 4ebe dd06 a2bd 1e15 4d3e
000001b0: bb1a a83d d3f5 a4bd 5155 c6bd b809 8c3d
000001c0: 13f0 18be 712d 78be 76c8 0e3c 65e4 4b3d
000001d0: f7ad c03c b628 a23d 194b e83d 109e e63d
000001e0: d2e1 d03d d64b d03c 5e55 433d 3e0b d1bc
000001f0: d386 62be a674 1abe eb10 93bd 90a7 12be
00000200: 80c5 e8bd f6d2 9cbc bb14 3cbe 4752 1ebe
00000210: f697 053d 440b 423b bf3f 64bc 41f6 093c
00000220: 1916 fa3c 7840 fb3b a960 18be 5ac7 08be
00000230: e1d9 83bd c7c7 85bd 6ab7 2abe 19a8 19be
0.038339537 0.101040706 0.14000049 0.026699912 0.0551514 0.058905773 -0.059043415 -0.29699185
-0.11039247 0.019455489 0.04266365 0.010550704 0.09637924 0.24152261 0.16007255 0.033758946
0.06665199 0.04071447 -0.08939886 -0.0407443 -0.039241526 0.064272635 0.15332305 0.09903682
0.12078743 0.1834092 0.095524296 0.006097844 0.02094306 0.0041253953 0.062887356 0.16441326
0.17496699 0.039972678 0.105668664 0.11259981 0.08502988 0.05362964 0.09646768 0.061172865
0.16579896 0.092477664 0.12712887 0.15784179 0.008462943 0.067318745 0.07125804 0.10201768
0.051027946 0.05019818 0.08846318 -0.09412111 0.17436302 0.11690395 0.05461455 0.09257036
-0.011862513 0.13331477 0.046632547 -0.102242984 0.021708746 -0.15794192 -0.23970442 0.05871552
-0.035468105 -0.083014585 0.009891323 0.09052144 0.074824974 -0.03836706 0.13401093 0.24400409
0.06573385 0.005539951 -0.02288483 -0.12992804 -0.15730603 -0.007856673 -0.18274686 -0.1243523
0.045024615 0.08220017 0.09911856 0.02838907 0.08331184 0.13276717 0.069714926 -0.016110074
0.0688278 0.12622601 0.061473973 -0.025190642 -0.05139902 -0.03422242 -0.14026171 -0.1599578
-0.033334464 -0.14287475 -0.14182176 -0.019632626 -0.040180646 0.107696496 -0.17700796 -0.027199054
0.16097683 -0.20164548 -0.07911465 0.20027587 0.082082234 -0.080547 -0.096842416 0.06837791
-0.14935331 -0.24236085 0.008714786 0.04977836 0.023520453 0.07917921 0.11342449 0.11260617
0.10199322 0.025426786 0.047688834 -0.025518056 -0.22121744 -0.1508356 -0.07180961 -0.14321733
-0.11365795 -0.019143563 -0.18367283 -0.15461074 0.032615624 0.0029608766 -0.013931214 0.008420528
0.030528115 0.0076675974 -0.14880623 -0.13357297 -0.064380415 -0.06532245 -0.1667153 -0.1500553
